checkpoint_actor.pth (torch_old, 630773 bytes, 6 tensors)

fc1.weight f4 [512, 48]
0	0x3de66442	0.112495914
1	0x3da90e9f	0.08254742
2	0x3cdedb34	0.027204134
3	0xbe1ca525	-0.15297373
4	0xbe55827a	-0.20850554
5	0xbd51c75b	-0.05121551
6	0x3cf50aa2	0.029912297
7	0xbe5276a5	-0.20553072
8	0x3e003c9f	0.12523125
9	0xbcea70cd	-0.02861824
10	0x3c471950	0.012152031
11	0xbf1ecd28	-0.62031794
12	0xbd838173	-0.06421175
13	0x3db5fb54	0.08885828
14	0x3d2a4ac3	0.041575205
15	0xbf113e6a	-0.5673586
16	0x3e750367	0.23927079
17	0x3c605b46	0.013693636
18	0x3caba45e	0.0209524
19	0xbe89fa9d	-0.26949015
20	0x3daa1779	0.08305258
21	0x3e448207	0.19190226
22	0x3932e503	0.00017060716
23	0xbe588a05	-0.211464
24	0xbe371c2b	-0.17881839
25	0xbd140cab	-0.036144894
26	0xb7eda9d6	-2.8331688e-05
27	0x3dbca5be	0.092113
28	0x3e1af36a	0.15131918
29	0xbd8ffb58	-0.07030362
30	0xbb557921	-0.003257342
31	0x3e0e5be6	0.13902244
32	0xbe1ccd22	-0.15312627
33	0xbd10f308	-0.035388023
34	0xbc96df6e	-0.018417086
35	0xbe8b502a	-0.27209598
36	0x3c077dbd	0.008269724
37	0x3d4453b7	0.0479314
38	0x3c02df95	0.007987876
39	0xbe92a202	-0.28639227
40	0xbd92a759	-0.07160825
41	0xbd552b68	-0.05204335
42	0x3c5212fb	0.012821908
43	0xbdb9a05a	-0.09063788
44	0xbd7eb299	-0.062182043
45	0x3e54b679	0.20772733
46	0xbc80353e	-0.015650388
47	0xbdf80e36	-0.121120855
48	0xbde04fd6	-0.109527275
49	0x3e29700c	0.16546649
50	0xbd2153e3	-0.03938664
51	0x3c0ac253	0.008469182
52	0xbe625eda	-0.22106495
53	0x3d797691	0.06090409
54	0xbd94088e	-0.07228194
55	0x3d9a61a4	0.07538155
56	0xbda378b3	-0.07982006
57	0x3e40f248	0.18842423
58	0x3c665bc4	0.014059965
59	0x3ef55a43	0.47920427
60	0xbde29c09	-0.110649176
61	0x3d7379b7	0.05944225
62	0xbcef22a7	-0.029191328
63	0x3ee3912b	0.44446692
64	0xbdac654b	-0.084177576
65	0x3e61baf4	0.22043973
66	0xbd6ace9d	-0.057325948
67	0x3df88792	0.12135233
68	0xbc1bb610	-0.009503856
69	0xbcecab38	-0.028890237
70	0xbd12c1e7	-0.03582945
71	0x3e153ac7	0.14573203
72	0x3dfbd085	0.12295631
73	0x3e410cd2	0.18852547
74	0x3d03c4a2	0.032169946
75	0x3e0a4ab5	0.13505061
76	0x3e646a16	0.22306094
77	0x3df29c3c	0.118462056
78	0x3c13aa47	0.009012765
79	0x3e05ce6a	0.13067022
80	0x3d817e2d	0.06322894
81	0x3e38db06	0.18052301
82	0xbcda51a2	-0.026650254
83	0x3e4b2adc	0.19840568
84	0x3d8bccfd	0.06826208
85	0x3d878872	0.06617822
86	0x3cf446c8	0.029818907
87	0x3e6d7f18	0.23193014
88	0x3e02af39	0.12762155
89	0x3e2451f3	0.16046886
90	0xbbdd6ad0	-0.006757118
91	0x3e15e4a1	0.14637996
92	0xbd9b1ffb	-0.07574459
93	0xbd593d43	-0.05303694
94	0x3b40c9e7	0.0029417218
95	0x3e1adeb7	0.15124021
96	0xba92c97c	-0.0011198963
97	0x3e19b75e	0.15011355
98	0xbd3deb11	-0.046366755
99	0x3e51d614	0.2049182
100	0xbe2c6537	-0.16835485
101	0x3d1ab921	0.03777421
102	0xbd73cc87	-0.059521224
103	0x3e55cfbe	0.20880029
104	0x3d99ced9	0.07510156
105	0x3e34f7ee	0.17672703
106	0x3d1c7c54	0.038204506
107	0x3e07b305	0.13251884
108	0x3d6091bd	0.054826487
109	0x3d47e5f5	0.04880329
110	0x3cd5deff	0.02610731
111	0x3e1c83c7	0.15284644
112	0xbc405c29	-0.011740723
113	0x3e53139a	0.20612946
114	0xbe5bed21	-0.21477176
115	0x3ea1cc41	0.31601146
116	0x3e1320ba	0.14367953
117	0xbd83101d	-0.06399558
118	0xbe2875ff	-0.16451262
119	0x3ea8cb43	0.32967576
120	0xbd3a6fc0	-0.04551673
121	0x3d540ca9	0.051769886
122	0xbce19da7	-0.027540995
123	0xbe054d9e	-0.1301789
124	0x3e4bd6c5	0.19906147
125	0x3d7e27b9	0.0620496
126	0xbc600988	-0.013674147
127	0xbdb83465	-0.089943685
128	0x3d541507	0.051777866
129	0x3d5d522d	0.054033447
130	0xbdb7fb2c	-0.08983454
131	0xbd92f60b	-0.07175835
132	0xbb641c8e	-0.003480706
133	0xbd01ed74	-0.031720594
134	0xbd50b51e	-0.050953977
135	0xbd254dfc	-0.040357575
136	0x3e0214de	0.12703273
137	0x3d9ce341	0.07660533
138	0xbd09f019	-0.03367624
139	0x3e4aad8e	0.19792768
140	0xbe2ed0d0	-0.17071843
141	0xbd38ff52	-0.045165367
142	0x3cb501c7	0.022095574
143	0x3e5555b0	0.20833468
144	0x3dfb9ba0	0.122855425
145	0x3dcd647a	0.1002893
146	0xbb66f43f	-0.0035240797
147	0x3dbb6be5	0.091514386
148	0x3d8fae18	0.070156276
149	0x3e357cb4	0.17723352
150	0x3d3ae272	0.04562611
151	0x3d7e6304	0.062106147
152	0x3dc6683a	0.096878484
153	0x3da1b0f9	0.07895083
154	0x3d53fc7d	0.051754463
155	0xbcc3515d	-0.023842508
156	0x3d919ada	0.07109614
157	0x3d298c0a	0.041393317
158	0x3d47d773	0.048789453
159	0x3c665ae0	0.014059752
160	0x3d7c9e28	0.061674267
161	0x3db95dfc	0.09051129
162	0x3d5ecfd3	0.054397415
163	0xbe2371f5	-0.1596144
164	0xbd3a6fdb	-0.04551683
165	0xbe5e1774	-0.21688634
166	0x3dd1dc61	0.10247112
167	0xbde77529	-0.113016434
168	0xbcb684d8	-0.022280142
169	0x3e1175f3	0.1420515
170	0xbd5c701d	-0.053817857
171	0x3ce16752	0.027515087
172	0xbde769d6	-0.112994835
173	0x3e2e2afa	0.17008582
174	0xbdff835b	-0.12476226
175	0x3ca8b5e6	0.020594548
176	0xbd9b0654	-0.07569566
177	0x3df72bb4	0.120688826
178	0x3ba94f40	0.005166918
179	0xbe30ad38	-0.17253578
180	0xbc2ae431	-0.010430382
181	0x3c14ecec	0.00908969
182	0x3cc0748e	0.023493078
183	0xbe4dab10	-0.20084786
184	0xbd71e09e	-0.059052102
185	0x3dd8b6b7	0.10581725
186	0xbd613b9a	-0.05498848
187	0xbe2f70e1	-0.17132904
188	0x3c709bf6	0.0146856215
189	0xbe2d35f8	-0.16915119
190	0x3c3ae077	0.011406056
191	0xbe5b4ea1	-0.21416713
192	0xbd24e253	-0.040254902
193	0x3d5b39a7	0.05352178
194	0xbd26fae8	-0.040766627
195	0x3eaf963a	0.342943
196	0x3d7035b3	0.05864496
197	0x3c908711	0.01764253
198	0x3bf0109c	0.0073261987
199	0x3e868de0	0.26280117
200	0xbd5024c6	-0.05081632
201	0x3df35dab	0.118831
202	0x3d64637d	0.055758942
203	0xbd9647d8	-0.07337922
204	0x3d4a55db	0.049398284
205	0xbe482616	-0.19545779
206	0x3d312cff	0.043255802
207	0xbd2d5e65	-0.04232635
208	0xbd45b763	-0.048270594
209	0x3dd36956	0.103228256
210	0xbd86b3d9	-0.06577272
211	0xbe40c153	-0.18823747
212	0x3cad4b41	0.021154048
213	0xbede6326	-0.4343502
214	0xbdb93dd7	-0.09044998
215	0xbe3c1cdf	-0.18370388
216	0x3892cc40	6.999867e-05
217	0x3daab029	0.08334381
218	0xbdd88011	-0.10571302
219	0x3ddd0b78	0.10793203
220	0xbda6a56d	-0.08137021
221	0xbcac46c3	-0.021029836
222	0xbdac219b	-0.08404847
223	0x3d9bb3ac	0.07602629
224	0xbd6d9e32	-0.058012195
225	0x3d785524	0.06062807
226	0x3d4085ff	0.04700279
227	0xbe40940e	-0.18806478
228	0xbd7574f5	-0.059925992
229	0xbe3a9092	-0.18219212
230	0x3cd862d0	0.026414305
231	0xbe4e7f44	-0.20165735
232	0xbdd72f76	-0.10507099
233	0x3e1529ee	0.14566776
234	0x3d980d9a	0.07424469
235	0xbe0613a8	-0.13093436
236	0x3d0a130f	0.033709582
237	0xbefe08ea	-0.49616176
238	0x3d8f6692	0.070019856
239	0xbd63cc9f	-0.055615064
240	0x3d6ea5a3	0.058263432
241	0x3e04bef7	0.12963472
242	0xbd9359b9	-0.071948476
243	0xbc4eab84	-0.012614135
244	0x3de55f22	0.11199786
245	0x3cd261a7	0.02568133
246	0x3c48094b	0.012209247
247	0xbb91c075	-0.0044479915
248	0x3d9c0456	0.076180145
249	0x3e080a19	0.13285102
250	0x3e1ffa45	0.15622814
251	0xbdd76ae8	-0.105184376
252	0x39a10fe6	0.00030720158
253	0x3dc2ab47	0.09505325
254	0x3db4dd8d	0.0883132
255	0xbd95fc2a	-0.07323487

fc1.bias f4 [512]
0	0xbe279da4	-0.16368729
1	0xbe663b71	-0.22483613
2	0xbe0f0d50	-0.13969922
3	0xbdbb70f9	-0.09152407
4	0xbe5a3887	-0.21310626
5	0xbe0591eb	-0.13043945
6	0x3e36fa0f	0.17868827
7	0xbe46b846	-0.19406232
8	0x3eb8c9a7	0.3609135
9	0xbb1e443b	-0.0024149555
10	0xbd75a013	-0.05996711
11	0xbdc32a7c	-0.095295876
12	0x3dcf4b04	0.1012173
13	0xbdc1239e	-0.094306216
14	0xbccc6516	-0.024950545
15	0x3de7195f	0.11284136
16	0xbcde7c6c	-0.027158938
17	0xbd746069	-0.059662256
18	0xbc97a116	-0.018509429
19	0xbd65d159	-0.056107853
20	0x3d020a78	0.031748265
21	0x3a2a44d5	0.0006495242
22	0x3db39121	0.087679155
23	0xbc5c7afe	-0.013457058
24	0x3c343aa7	0.011000312
25	0x3d89c23e	0.06726502
26	0xbe3dfea5	-0.1855417
27	0x3cbf8f55	0.023383776
28	0xbe7a4e1a	-0.24443856
29	0xbd10d63c	-0.03536056
30	0x3df2e85a	0.11860724
31	0xbd2179b0	-0.03942269
32	0x3db42925	0.0879691
33	0xbe0dd5ee	-0.13851139
34	0xbe44380d	-0.19162007
35	0xbe1cc293	-0.15308599
36	0xbd179d5f	-0.037015315
37	0xbe8663a5	-0.26247898
38	0xbd8d6143	-0.06903317
39	0xbe0bd26c	-0.13654488
40	0x3e2545c6	0.16139898
41	0xbd0d885a	-0.034553863
42	0xbd4c0871	-0.049812738
43	0x3c6ec436	0.0145731475
44	0x3d5de649	0.054174695
45	0xbd773880	-0.060356617
46	0x3df95d6c	0.12176022
47	0x3d9ba6ef	0.076001994
48	0xbd9c4ddb	-0.07632037
49	0x3e5e17fe	0.2168884
50	0x3c0581ef	0.008148654
51	0x3d3c4006	0.045959495
52	0xbe49c351	-0.19703414
53	0x3b5bcfcc	0.0033540605
54	0xbde77cf2	-0.11303128
55	0x3d1ab28f	0.037767943
56	0xbcbf069a	-0.023318578
57	0xbe3be7fc	-0.18350214
58	0xbd951a0a	-0.07280357
59	0xbe1cada5	-0.15300615
60	0xbdce4aba	-0.10072847
61	0xbcfdc20f	-0.030976323
62	0xbdde389a	-0.1085064
63	0xbe3bdfff	-0.18347166
64	0xbe707724	-0.23482949
65	0x3da1c978	0.07899755
66	0xbca6fc2e	-0.02038392
67	0x3df84f33	0.12124481
68	0xbe222033	-0.15832596
69	0xbe034f71	-0.12823273
70	0xbdf72edc	-0.120694846
71	0xbdcf14ec	-0.101114124
72	0xbe9ae673	-0.30253944
73	0xbc8a207b	-0.016861191
74	0xbb80b884	-0.003928246
75	0xbdc5a724	-0.0965102
76	0xbe31456a	-0.17311636
77	0xbd782b65	-0.06058826
78	0xbe39c5ac	-0.18141812
79	0x3d9bfe20	0.0761683
80	0x3d088cf2	0.03333754
81	0xbdc71fdc	-0.097228736
82	0x3d5964d9	0.05307469
83	0xbd0c8127	-0.034302857
84	0xbd242605	-0.04007532
85	0xbdb9b9a4	-0.09068611
86	0xbddf89e1	-0.1091497
87	0xbaf623bf	-0.0018778964
88	0x3e13ab32	0.14420775
89	0x3e2e6e81	0.17034341
90	0xbeb8ba8a	-0.36079818
91	0xbdc13783	-0.09434416
92	0x3dfe8ba4	0.12428978
93	0xbd24d7d2	-0.040244885
94	0xbe20836f	-0.15675138
95	0xbd8c0650	-0.068371415
96	0xbcc7df90	-0.024398595
97	0xbd36ecc8	-0.044659406
98	0xbeb50ddf	-0.35362145
99	0xbb01058c	-0.0019687144
100	0x3da31e8a	0.07964809
101	0xbc8765f6	-0.016528111
102	0xbbbc2bd8	-0.0057425313
103	0xbe6c671e	-0.23086211
104	0xbd43bc77	-0.047787156
105	0xbdca5ee1	-0.09881378
106	0xbdb92389	-0.09039981
107	0x3cf9b841	0.030483367
108	0x3d37c100	0.044861794
109	0xbe252e6f	-0.16130994
110	0xbda81221	-0.08206583
111	0xbdf8dabb	-0.121510945
112	0xbe6d59f7	-0.2317885
113	0xbd40ec6b	-0.047100466
114	0xbd696039	-0.05697653
115	0x3d51fc4d	0.051266003
116	0xbd6d5997	-0.057946768
117	0xbd713285	-0.05888607
118	0x3e045509	0.12923063
119	0xbd15e545	-0.0365956
120	0xbdcc276a	-0.09968455
121	0xbe61b991	-0.22043444
122	0xbe400cdc	-0.18754905
123	0xbe3eee00	-0.18645477
124	0xbe0c7e66	-0.13720092
125	0x3d146c1a	0.036235906
126	0xbdfe92ba	-0.124303296
127	0x3dc3b9d7	0.095569305
128	0xbe43f2bd	-0.19135566
129	0x3d7a43c3	0.06109978
130	0xbdb55253	-0.08853593
131	0x3e0189af	0.12650178
132	0xbcef72f1	-0.029229613
133	0x3d87527b	0.06607529
134	0x3d9e7011	0.07736219
135	0x3de7600b	0.112976156
136	0x3da7d712	0.08195318
137	0xbe364cc7	-0.17802726
138	0xbe3170ae	-0.1732814
139	0x3e1313b5	0.14362986
140	0xbe26e0be	-0.1629667
141	0xbe1f8766	-0.15578994
142	0x3e5ebc60	0.21751547
143	0xbe2e6730	-0.1703155
144	0xbe28f3d8	-0.16499269
145	0xbcb2883c	-0.021793477
146	0xbd0942b9	-0.033510897
147	0xbe38b4e4	-0.18037754
148	0xbdf4f360	-0.119604826
149	0xbccab92d	-0.024746502
150	0xbde46d40	-0.1115365
151	0xbe80b5a4	-0.2513858
152	0x3e07b916	0.13254198
153	0xbd2fb503	-0.042897236
154	0xbe894383	-0.2680932
155	0xbe39e627	-0.18154202
156	0xbe12e2d7	-0.14344345
157	0xbe004f40	-0.12530231
158	0xbdc0c13b	-0.09411856
159	0xbe0966b9	-0.13418092
160	0x3d51d891	0.051231924
161	0xbe39d860	-0.18148947
162	0xbd229972	-0.039697118
163	0xbe672b9a	-0.22575226
164	0xbd74c744	-0.059760347
165	0xbd1d6d2f	-0.038434204
166	0xbd92faee	-0.07176767
167	0xbc1ef63a	-0.00970226
168	0xbe3f36b1	-0.18673207
169	0xbc53ed70	-0.0129350275
170	0xbdc94856	-0.0982825
171	0xbe1a8505	-0.15089805
172	0x3c2dc72e	0.01060657
173	0xbe82568a	-0.2545665
174	0xbd828672	-0.063733
175	0xbd4b68a5	-0.049660344
176	0xbd5a0f14	-0.053237036
177	0x3e127520	0.14302492
178	0xbdc1b166	-0.09457664
179	0xbe144a0f	-0.14481376
180	0xbd31e59f	-0.043431874
181	0x3d8b4209	0.067997046
182	0xbe03fa78	-0.12888515
183	0xbdf5a405	-0.11994175
184	0xbdcbbd12	-0.09948172
185	0x3c01af85	0.007915382
186	0xbe47a848	-0.19497788
187	0xbe06ebbf	-0.13175867
188	0xbe4b7a34	-0.19870836
189	0xbe029066	-0.12750396
190	0x3dc7d1d7	0.09756821
191	0xbdbe72f6	-0.09299271
192	0x3d137257	0.035997715
193	0xbe08856b	-0.13332145
194	0xbd797324	-0.060900822
195	0xbc0efa24	-0.00872663
196	0xbdb4ad1d	-0.08822081
197	0x3e3998f0	0.18124747
198	0xbd3a236f	-0.04544395
199	0xbde92c7e	-0.11385439
200	0x3d9dcb4c	0.077047914
201	0x3d255674	0.04036565
202	0x3e4ed162	0.2019706
203	0xbe71f45e	-0.23628375
204	0xbd7b8979	-0.0614104
205	0xbbc1c78f	-0.005913682
206	0xbc2eb896	-0.010664126
207	0x3e2211a6	0.15827045
208	0xbde227cb	-0.11042746
209	0x3b93c02e	0.0045089936
210	0xbc592444	-0.013253275
211	0xbd6bb8e6	-0.05754938
212	0xbd2a4d27	-0.041577484
213	0x3e438cf6	0.19096741
214	0x3d7465f8	0.059667557
215	0x3dcd106d	0.100128986
216	0xbe03a909	-0.1285745
217	0x3d059ea9	0.032622013
218	0x3b851d39	0.0040623215
219	0x3da71e13	0.08160033
220	0xbddb2f07	-0.10702329
221	0xbdf16fad	-0.117888786
222	0x3e1ec84f	0.15506099
223	0x3cbc4abe	0.022984859
224	0x3e1db52c	0.15401143
225	0x3c27f74b	0.01025183
226	0xbe4a3a5c	-0.19748825
227	0x3e59f885	0.21286209
228	0xbd567f10	-0.05236727
229	0xbde3b238	-0.11117977
230	0x3cb98afd	0.022649283
231	0xbe1ebb3f	-0.15501116
232	0x3c26f45e	0.010190098
233	0x3d3c0af0	0.04590887
234	0xbe73c636	-0.2380608
235	0xbce2299d	-0.027607733
236	0xbdd17786	-0.102278754
237	0xbdbb8580	-0.091563225
238	0xbe2d6cda	-0.16936055
239	0xbe047c4f	-0.12938045
240	0xbe40a600	-0.18813324
241	0x3e0ae025	0.13562067
242	0xbe327614	-0.17427856
243	0xbd3f303c	-0.04667686
244	0xbd49cafe	-0.049265854
245	0xbe834b7b	-0.25643525
246	0xbe0f610a	-0.14001861
247	0x3e3fb19f	0.18720101
248	0xbe86c4e6	-0.26322097
249	0x3e1c53bb	0.15266316
250	0x3d1ac6e7	0.037787344
251	0xbe1ce4f4	-0.15321714
252	0xbdce9366	-0.10086708
253	0x3d86d981	0.06584454
254	0xbe713511	-0.235554
255	0xbd857af5	-0.06517593

fc2.weight f4 [256, 512]
0	0xbe8607bf	-0.26177785
1	0x3d4bb529	0.049733315
2	0xbdd14fa8	-0.10220271
3	0xbe97084c	-0.29498518
4	0xbc040adf	-0.0080592325
5	0xbd8c0738	-0.06837314
6	0xb9f273aa	-0.00046244013
7	0xbdfa311c	-0.12216398
8	0x3d9c8e0e	0.07644282
9	0xbd3b4409	-0.04571918
10	0x3c1c9b4d	0.009558511
11	0xbda3cbb9	-0.079978414
12	0xbba26a92	-0.004956552
13	0xbd333d58	-0.043759674
14	0xbc8a4703	-0.016879564
15	0xbdf2d527	-0.11857062
16	0x3d90ddd6	0.07073562
17	0xbbcab7fb	-0.006186483
18	0xbce4b240	-0.027917027
19	0x3da71969	0.081591435
20	0xbefdc084	-0.4956094
21	0xbd057889	-0.032585654
22	0x3dfd8165	0.12378196
23	0xbdb9e136	-0.09076159
24	0xbdb6882e	-0.08912693
25	0xbde42408	-0.11139685
26	0xbe6ce5a0	-0.2313447
27	0x3d85dac0	0.06535864
28	0xbe0c8c0d	-0.137253
29	0x3db281e3	0.0871618
30	0xbcf0b26a	-0.02938195
31	0x3db17400	0.08664703
32	0x3c4f4bec	0.0126523785
33	0x3d91abf8	0.071128786
34	0xbd3e8c59	-0.046520565
35	0xbd195924	-0.037438527
36	0xbdb0a2cc	-0.08624801
37	0x3dd2287e	0.102616295
38	0xbe1a23e8	-0.1505276
39	0x3da13563	0.07871511
40	0x3e0bebed	0.13664217
41	0x3e82f6c2	0.25578886
42	0x3e024c4f	0.12724422
43	0xbd0b20c0	-0.03396678
44	0xbdd2b398	-0.10288161
45	0xbda4e3b3	-0.08051243
46	0xbd2fd1c0	-0.042924643
47	0xbd51feec	-0.051268503
48	0xbd1aa6e8	-0.03775683
49	0x3e7c150d	0.24617405
50	0x3cc13415	0.023584405
51	0x3bca69b7	0.006177153
52	0xbd3085a9	-0.04309622
53	0x3b693708	0.003558578
54	0xbd8f544d	-0.06998501
55	0x3d95eab2	0.07320155
56	0xbe4edce4	-0.2020145
57	0x3c109674	0.008824933
58	0x3e032ff0	0.12811255
59	0xbe1369f4	-0.14395887
60	0x3e18d526	0.1492506
61	0xbc9af29b	-0.018914511
62	0x3e303f09	0.17211546
63	0xbbd3ec14	-0.0064673517
64	0xbda50ae7	-0.0805872
65	0x3d87c3cc	0.06629142
66	0x3dbe0d35	0.09279863
67	0x3de1a60e	0.110180005
68	0x3e202cd1	0.15642096
69	0xbdc2d20b	-0.09512719
70	0x3c211a78	0.009832971
71	0x3cb2d8ec	0.021831952
72	0xbcea9060	-0.028633296
73	0x3d57b56e	0.05266326
74	0x3d281364	0.041034117
75	0xbbb306a6	-0.005463439
76	0x3e1d2b4a	0.15348545
77	0xbd119139	-0.035538886
78	0xbd9bc1b5	-0.07605306
79	0x3dc12c0e	0.09432231
80	0x3e21c11b	0.1579632
81	0xbe628f69	-0.22125019
82	0xbea8ffd1	-0.33007672
83	0x3c9e7478	0.019342646
84	0xbd14d38f	-0.03633457
85	0xbd5948ee	-0.053048067
86	0xbc867ca7	-0.01641686
87	0x3d3ce462	0.04611624
88	0x3dbca328	0.09210807
89	0xbebc5006	-0.36779803
90	0xbcc085b5	-0.023501256
91	0xbdbb78a9	-0.091538735
92	0xbd7a1ee1	-0.061064605
93	0x3d6692f0	0.056292474
94	0x3d8ca3ca	0.06867178
95	0x3d99e6b0	0.07514703
96	0x3c61e8ab	0.0137883825
97	0xbd0e937c	-0.03480862
98	0x3dc92ef1	0.098234065
99	0x3ddca4cf	0.10773622
100	0xbcd91dcc	-0.026503466
101	0xbdc2c1bd	-0.09509609
102	0x3ac0eebb	0.0014719585
103	0xbd6a6e39	-0.057234023
104	0x3c13ffa1	0.009033115
105	0x3da27c1e	0.0793383
106	0xbb13e5ee	-0.0022567469
107	0xbe4a20cf	-0.19739078
108	0xbe00837b	-0.12550156
109	0xbd21e6be	-0.039526694
110	0xbd41024a	-0.047121324
111	0x3e652570	0.22377563
112	0x3d534eb3	0.051588725
113	0x3dadf214	0.08493438
114	0x3dff32a3	0.1246083
115	0x3eacdf08	0.3376391
116	0x3d418710	0.047247946
117	0x3d13978b	0.036033195
118	0xbdee22d4	-0.11627737
119	0x3e4dd554	0.2010091
120	0xba288bbf	-0.0006429515
121	0xbc2769c9	-0.010218092
122	0xbee99d61	-0.45627883
123	0xbe8bcd16	-0.27304906
124	0x3d043cb1	0.032284442
125	0xbbd04af3	-0.006356591
126	0x3df80fe5	0.12112407
127	0x3cf04ae2	0.029332582
128	0xbdaf17bb	-0.08549448
129	0xbde36a9d	-0.11104319
130	0xbf65ede4	-0.8981612
131	0xbd84a972	-0.06477632
132	0x3b4e34bb	0.0031464535
133	0x3dfe626a	0.12421115
134	0xbe84c626	-0.25932425
135	0xbdc6944c	-0.09696254
136	0xbdfbb37b	-0.122900926
137	0xbc2269bc	-0.009912904
138	0xbdadc52c	-0.08484873
139	0xbd5b5809	-0.053550754
140	0xbdacd560	-0.084391356
141	0xbd4a09e8	-0.049325854
142	0x3e64a5f2	0.22328928
143	0x3d36841d	0.044559587
144	0xbe135590	-0.14388108
145	0xbd7abe0a	-0.06121639
146	0x3de780d5	0.1130387
147	0xbe2a93f4	-0.16658002
148	0x3d3287e6	0.043586634
149	0x3ca35c9a	0.019941617
150	0xbe325b6d	-0.17417689
151	0x3dfdc4df	0.12391066
152	0x3dc81e78	0.097714365
153	0x3d1aac49	0.03776196
154	0x3e154e6a	0.14580694
155	0xbe9daed1	-0.30797437
156	0xbcd36812	-0.02580646
157	0xbcc6d96b	-0.024273595
158	0xbe291c41	-0.16514684
159	0xbdf5f399	-0.12009353
160	0x3e2b5695	0.16732247
161	0x3d499d85	0.049222488
162	0x3d3baf1c	0.045821294
163	0xbdebc5b2	-0.11512317
164	0xbef6b7bf	-0.48187062
165	0x3e705168	0.23468554
166	0xbc3be6a0	-0.0114685595
167	0xbd3fa0d7	-0.04678425
168	0xbd9eea49	-0.0775953
169	0xbe4df536	-0.20113072
170	0xbc4c14a9	-0.012456098
171	0xbc494b10	-0.012285963
172	0xbcaad476	-0.020853262
173	0xbd52e658	-0.051489204
174	0x3d8ab7c9	0.067733355
175	0x3da9e3d8	0.08295411
176	0xbd223811	-0.03960425
177	0xbd97c97a	-0.074114755
178	0xbbc89656	-0.006121437
179	0xbece8885	-0.4033853
180	0x3d6a2a4e	0.05716925
181	0x3d1c4450	0.038151085
182	0x380fb5b2	3.4263074e-05
183	0x3dd13f99	0.102172084
184	0x3dabdcfa	0.08391757
185	0xbdb577fc	-0.08860776
186	0xbe21bc09	-0.15794386
187	0xbe15777e	-0.14596364
188	0xbcf214e1	-0.029550971
189	0x3d72effe	0.059310906
190	0x3cae0e6f	0.021247117
191	0xbd261e3b	-0.040556174
192	0x3e0dd10b	0.13849275
193	0x3bd64c38	0.0065398477
194	0x3bc8f8e2	0.006133185
195	0xbd85928f	-0.065220945
196	0xbb5b17c1	-0.0033430906
197	0xbf50769a	-0.8143097
198	0x3d667580	0.0562644
199	0x3cb41448	0.021982327
200	0xbcb1d8d3	-0.021709835
201	0x3db57a06	0.08861165
202	0xbccd1a62	-0.025036994
203	0xbd869fe1	-0.06573463
204	0x3c6030d6	0.013683518
205	0x3dabd3bb	0.08389994
206	0xbd051dda	-0.03249917
207	0x3daeab39	0.08528752
208	0xbdda5748	-0.10661179
209	0xbe03ee12	-0.12883785
210	0x3e391c36	0.18077168
211	0x3d903a38	0.07042354
212	0x3e507142	0.20355704
213	0x3bd65060	0.006540343
214	0xbca9f812	-0.020748172
215	0x3e1d21f8	0.1534499
216	0xbe39ad45	-0.18132503
217	0xbedba789	-0.42901257
218	0xbd0174b3	-0.031605434
219	0xbe008532	-0.1255081
220	0x3d39c192	0.04535062
221	0x3dc44490	0.0958339
222	0x3d591bb8	0.05300495
223	0x3de0d662	0.1097839
224	0x3d7f4504	0.062321678
225	0xbdcd504b	-0.1002508
226	0xbd991c96	-0.074761555
227	0xbcb39370	-0.02192089
228	0x3df7dc7e	0.121026024
229	0x3d8da947	0.06917053
230	0xbe4abbee	-0.19798252
231	0x3beffb8e	0.007323689
232	0x3eb105b8	0.34574676
233	0x3db1b528	0.08677131
234	0xbd973dcb	-0.07384833
235	0xbce3185b	-0.027721575
236	0x3e12620d	0.14295216
237	0x3d9282ed	0.07153878
238	0x3cd60791	0.026126655
239	0x3d8e47b0	0.06947267
240	0x3d71e1ce	0.059053235
241	0x3e07bd3e	0.13255784
242	0xbd240e60	-0.04005277
243	0x3cdbb2d4	0.02681867
244	0xbd9fa085	-0.077942885
245	0x3d84bfb2	0.064818755
246	0xbdac75d5	-0.08420912
247	0xbe6ff967	-0.23434983
248	0x3d815605	0.06315235
249	0x3d7f65e0	0.062353015
250	0x3c94fb0f	0.01818612
251	0xbd92e1cc	-0.071719736
252	0x3d3087af	0.043098148
253	0xbcda436e	-0.026643481
254	0xbe34d05d	-0.1765761
255	0xbcab28cc	-0.020893477

fc2.bias f4 [256]
0	0x3dba3e85	0.09093956
1	0x3da0d29e	0.07852672
2	0x3dc2bfb7	0.09509223
3	0xbd4468cd	-0.04795151
4	0x3d4d1a44	0.050073877
5	0xbb4e6306	-0.0031492128
6	0xbdce30ab	-0.100678764
7	0xbd5807d8	-0.052741855
8	0xbc0baf3f	-0.008525669
9	0xbd47a6f7	-0.048743214
10	0xbdb2bf9e	-0.08727954
11	0x3e271445	0.16316326
12	0x3b9fc2b6	0.0048755063
13	0x3e182b47	0.14860259
14	0xbd512663	-0.051062
15	0x3bd5d6be	0.0065258434
16	0xbe85c44e	-0.2612633
17	0x3d4d9ed7	0.05020031
18	0xbd71142f	-0.05885714
19	0xbca46f5f	-0.020072637
20	0xbcd2f2c7	-0.02575053
21	0xbd2d0cee	-0.04224866
22	0xbc02eb2d	-0.007990641
23	0xbd907dbb	-0.07055231
24	0xbcaac308	-0.020844951
25	0x3c9997a6	0.01874907
26	0xbd27d260	-0.040972114
27	0xbb2e2eee	-0.0026578265
28	0x3c89636d	0.016771043
29	0x3db2083b	0.08692976
30	0xbcf0b263	-0.029381936
31	0x3c514dca	0.012774894
32	0x3dc18236	0.09448664
33	0x3d254318	0.04034719
34	0xbe22c921	-0.15897037
35	0x3dc51672	0.09623422
36	0xbdea3162	-0.114352
37	0xbdd4a2b1	-0.103825934
38	0xbc7b27dd	-0.015329328
39	0x3e19eb02	0.15031055
40	0xbd70bfe1	-0.05877674
41	0xbe038627	-0.12844144
42	0x3d10537d	0.03523587
43	0x3d5502f5	0.052004773
44	0x3c8b3022	0.016990725
45	0xbd7b2da6	-0.06132283
46	0x3d8691e7	0.065707974
47	0x3c1989f9	0.009371274
48	0x3d450ad4	0.04810603
49	0xbd8ff723	-0.070295595
50	0xbd140981	-0.036141876
51	0x3e0ee604	0.13954931
52	0xbd7b68bd	-0.061379183
53	0x3d19448c	0.037418887
54	0x3e20e235	0.15711291
55	0x3e11751c	0.1420483
56	0xbc1f279f	-0.009714036
57	0x3de55c23	0.11199214
58	0x3d40a35b	0.047030788
59	0x3c0697b3	0.008214879
60	0xbc2708bf	-0.010194956
61	0xbc3f197e	-0.011663793
62	0xbcc6ab53	-0.024251616
63	0xbe1931b4	-0.14960366
64	0xbcc8f8f6	-0.024532776
65	0x3d3e7789	0.046500716
66	0xbc44529f	-0.011982589
67	0x3d2667c4	0.040626302
68	0x3b351b9f	0.0027634872
69	0x3d41b523	0.047291886
70	0x3e0ea0c4	0.13928515
71	0xbd93cefd	-0.07217214
72	0xbc972727	-0.018451286
73	0x3d42bde5	0.04754438
74	0xbb9bd45f	-0.004755541
75	0xbda778f2	-0.08177365
76	0xbcfe9825	-0.031078408
77	0xbd5f43b3	-0.054507922
78	0xbd3be2d8	-0.045870632
79	0x3d9da076	0.07696621
80	0xbd9c60b1	-0.0763563
81	0xbcf260fe	-0.029587265
82	0x3dd1ceb7	0.10244506
83	0x3c873a19	0.016507195
84	0xbe9f7f2c	-0.31151712
85	0x3cbec71e	0.023288306
86	0xbcfb7a2b	-0.030697903
87	0xbd0b9aa3	-0.03408302
88	0x3d9521a5	0.07281808
89	0xbddac47e	-0.10682009
90	0xbd42f738	-0.047599047
91	0xbcc82136	-0.024429899
92	0x3d165f8d	0.036712218
93	0x3c08929c	0.008335736
94	0x3dcb1c92	0.09917559
95	0x3dc28cc6	0.09499507
96	0xbd457d1a	-0.04821501
97	0xbc115961	-0.008871407
98	0x3c869b5d	0.016431505
99	0xbcd321a9	-0.025772886
100	0xbccbba40	-0.024869084
101	0xbca861dc	-0.020554475
102	0x3db76860	0.08955455
103	0xbd7ed471	-0.06221432
104	0x3e013a3d	0.12619872
105	0xbe168fa3	-0.1470323
106	0x3db1aa0a	0.086750105
107	0xbdc482fd	-0.095952965
108	0xbe2c0d80	-0.16802025
109	0xbd8646ba	-0.06556459
110	0xbd398460	-0.04529226
111	0xbd6686e0	-0.05628097
112	0x3d83df5f	0.06439089
113	0xbc72eee1	-0.014827461
114	0x3dbd5c84	0.092461616
115	0x3d818750	0.06324637
116	0xbda518e5	-0.08061389
117	0x3bb34d96	0.0054718954
118	0x3e0f0333	0.13966064
119	0x3dcbb227	0.09946089
120	0x3d748d32	0.059704967
121	0x3cc4c9fd	0.024022097
122	0xbccce06c	-0.025009356
123	0x3e34519b	0.17609255
124	0xbc867c13	-0.016416585
125	0x3ca1269e	0.019671734
126	0xbe0c66aa	-0.13711038
127	0x3c8ec444	0.017427571
128	0x3d3a54d2	0.045491047
129	0x3d2bbee5	0.041930098
130	0x3b256837	0.002523912
131	0x3c848de3	0.016180938
132	0xbc49b572	-0.012311326
133	0x3deafa9a	0.1147358
134	0x3caa67c4	0.020801432
135	0xbd3f7a70	-0.046747625
136	0xbd033410	-0.032032073
137	0x3e3c5438	0.18391502
138	0x3d464baf	0.04841202
139	0xbdcc9e2d	-0.09991107
140	0xbdb2dbf9	-0.08733363
141	0xbd8522f7	-0.0650081
142	0xbd319848	-0.043358117
143	0xbc501338	-0.012699895
144	0xbe0698a1	-0.13144161
145	0xbde2b058	-0.11068791
146	0xba91a7d1	-0.0011112635
147	0x3d5f731b	0.054553133
148	0x3de567e7	0.112014584
149	0xb8916404	-6.932768e-05
150	0x3c68b6a4	0.014203701
151	0x3a9053f7	0.0011011352
152	0x3cab119c	0.02088242
153	0x3c4455ae	0.011983318
154	0x3c2f5805	0.010702138
155	0xbdb413d6	-0.08792846
156	0x3e24f9d6	0.1611093
157	0x3d489b20	0.048976064
158	0x3c9549c7	0.018223656
159	0xbda791c1	-0.08182097
160	0xbd0f3965	-0.034966845
161	0xbd8019c1	-0.06254912
162	0xbd58824a	-0.05285863
163	0xbd02b281	-0.031908516
164	0x3d8350c4	0.06411889
165	0xbd353974	-0.044244245
166	0x3ccacc91	0.024755748
167	0xbd6431f4	-0.0557117
168	0xbd08882c	-0.03333299
169	0xbbb6cfd4	-0.0055789743
170	0x3d60638c	0.054782435
171	0x3d37d6db	0.044882637
172	0x3e249a4f	0.16074489
173	0xbaf7e9e4	-0.0018914309
174	0xbd8ffa5a	-0.07030173
175	0x3d9363a5	0.0719674
176	0x3d047954	0.03234227
177	0x3d84a2b6	0.06476347
178	0x3e092642	0.133935
179	0xbd96f703	-0.073713325
180	0xbd593d2f	-0.053036865
181	0xbbfcdfa7	-0.007717091
182	0xbdd531ae	-0.10409866
183	0x3ca6b38f	0.020349292
184	0xbc0770d2	-0.008266645
185	0x3d47c80d	0.048774768
186	0xbccaeb1d	-0.024770314
187	0x3d54fee0	0.05200088
188	0x3c8f7818	0.01751332
189	0xbd2586ea	-0.040411867
190	0x3a1e4651	0.00060376996
191	0xbd3bff9b	-0.04589806
192	0xbce5e597	-0.028063579
193	0xbcf813b3	-0.03028283
194	0x3be3e63b	0.006954936
195	0xbc074bc9	-0.008257815
196	0xbcdfb9d1	-0.027310284
197	0xbb646a85	-0.003485353
198	0x3a9cc2fd	0.0011959967
199	0xbdbde5e1	-0.092723615
200	0x3a8a37e7	0.0010545225
201	0x3d81abcb	0.06331595
202	0x3dafc641	0.08582736
203	0x3dfd6c54	0.123741776
204	0xbc925117	-0.017860932
205	0x3e2477f9	0.16061391
206	0x3a7873f8	0.000947773
207	0xbc30eaa3	-0.010798129
208	0xbda3b429	-0.07993347
209	0x3c230caf	0.0099517545
210	0xbe0d284f	-0.13784908
211	0x3cdc3d01	0.026884558
212	0x3d2ac092	0.041687556
213	0x3ca9f952	0.020748768
214	0x3e50f53a	0.20406047
215	0x3d505142	0.050858743
216	0xbb57cf86	-0.003293009
217	0x3d859926	0.06523351
218	0x3dc871ae	0.09787308
219	0x3cfcea01	0.0308733
220	0x3bb2edb5	0.005460466
221	0xbd861648	-0.065472186
222	0x3d92af4e	0.07162343
223	0xbd44e2d5	-0.048067886
224	0x3dfe51e0	0.1241796
225	0x3e290cb3	0.1650875
226	0x3d711831	0.05886096
227	0xbcbb9bae	-0.022901382
228	0xbb280c23	-0.0025642
229	0xbd7f6c2f	-0.06235903
230	0xbce6fafb	-0.028195849
231	0xbd6d7e3d	-0.05798172
232	0x3d9e6a0e	0.07735072
233	0x3d3a9e96	0.045561396
234	0x3d5bf794	0.053702906
235	0x3dd92781	0.10603238
236	0x3dd0b740	0.10191202
237	0xbc98143e	-0.01856434
238	0xbde077c7	-0.10960346
239	0xbc72a2d7	-0.014809332
240	0xbd7d9af7	-0.061915364
241	0x3dbd7ae3	0.092519544
242	0xbdf2ebdc	-0.11861393
243	0x3d41e4c0	0.047337294
244	0xbd56ea42	-0.0524695
245	0x3d701a9b	0.058619123
246	0x3def3af8	0.11681169
247	0xbe435a21	-0.1907735
248	0x3c62445c	0.013810243
249	0xbd2d4373	-0.042300653
250	0xbe140749	-0.14455904
251	0xbdfb1e1b	-0.122616015
252	0x3da869a1	0.08223272
253	0xbd5d19be	-0.053979628
254	0x3dd6e4c9	0.10492856
255	0x3ce01648	0.027354375

fc3.weight f4 [4, 256]
0	0xbc531eab	-0.01288573
1	0x3cca6246	0.024705064
2	0xbe2f624d	-0.17127343
3	0x3d210a64	0.03931655
4	0x3e8f0794	0.2793547
5	0x3d8eaf94	0.069670826
6	0x3d99115b	0.074740134
7	0x3e8dd316	0.27700108
8	0xbd9ba24e	-0.075993165
9	0x3cd223ea	0.02565189
10	0x3c31d6ca	0.010854432
11	0xbeec8795	-0.4619719
12	0xbe09d640	-0.13460636
13	0xbeebecfc	-0.46079242
14	0x3d4da302	0.050204284
15	0xbb4bca22	-0.0031095822
16	0x3e9058f8	0.28192878
17	0xbed1c177	-0.40967914
18	0x3dad98ac	0.084763855
19	0xbd5f959c	-0.054586038
20	0x3de09191	0.109652646
21	0xbdffa128	-0.1248191
22	0x3e93e904	0.28888714
23	0x3f418a8f	0.7560205
24	0x3e619a78	0.22031581
25	0x3d0eee19	0.034895036
26	0x3e3d4716	0.18484148
27	0x3d32af8a	0.04362444
28	0xbebba2ae	-0.36647552
29	0xbdfbc3fb	-0.1229324
30	0xbecae7e3	-0.3963004
31	0xbea03e23	-0.31297407
32	0x3bac05f7	0.0052497345
33	0xbe7ca3c5	-0.24671848
34	0x3ec6fcc6	0.38864726
35	0x3d40543a	0.046955325
36	0x3da6860b	0.081310354
37	0x3d093171	0.033494417
38	0xbcb53fc6	-0.022125136
39	0xbed12cb1	-0.4085441
40	0x3e527efc	0.20556253
41	0x3e51e7e6	0.20498618
42	0xbc40443c	-0.011735018
43	0x3e5fa2c9	0.21839441
44	0x3ebbe1df	0.36695763
45	0x3ca7ae2f	0.0204688
46	0xbeb0a8d4	-0.34503806
47	0x3c80d645	0.015727172
48	0x3e80dacc	0.2516693
49	0x3d91712e	0.071016654
50	0xbf222546	-0.63338125
51	0xbd343f60	-0.04400575
52	0x3e01d238	0.12677848
53	0x3d88951d	0.06669066
54	0xbd0bb4ee	-0.034108095
55	0x3dce6e22	0.100796
56	0x3e3907b6	0.18069348
57	0xbccdce56	-0.025122803
58	0x3e1e5e64	0.15465695
59	0x3d43672d	0.047705818
60	0xbed8b121	-0.4232264
61	0xbd9a1250	-0.07523024
62	0xbdb2fc26	-0.087395
63	0xbd6e89fb	-0.058237057
64	0xbf0723e7	-0.5278916
65	0x3e49832b	0.19678943
66	0x3d97cb3f	0.07411813
67	0x3c673bb2	0.014113354
68	0x3d943d90	0.072383046
69	0x3d22a0b1	0.03970403
70	0xbe49bce0	-0.19700956
71	0xbcc3b813	-0.023891484
72	0x3b50f8ef	0.0031886657
73	0xbecf4960	-0.40485668
74	0xbea3448a	-0.3188823
75	0xbca3fbe3	-0.02001757
76	0x3e0697c4	0.13143831
77	0xbe128c8d	-0.14311428
78	0x3e4f5a10	0.202492
79	0x3db49f98	0.088195026
80	0xbd9d4134	-0.07678452
81	0x3e709802	0.23495486
82	0x3d34a09b	0.044098478
83	0xbe25ad72	-0.16179445
84	0x3f860fc7	1.0473565
85	0xbebbcdf9	-0.36680582
86	0x3d1c21bd	0.038118113
87	0xbe5571a3	-0.2084413
88	0x3d547625	0.051870484
89	0x3e21c996	0.15799555
90	0xbe97fe9f	-0.29686448
91	0x3f03ee8e	0.5153588
92	0x3e6af8b8	0.22946441
93	0xbe502862	-0.20327905
94	0x3df9e2a7	0.12201434
95	0x3d83c4ad	0.06433997
96	0xbe18d5a5	-0.14925249
97	0x3e192212	0.14954403
98	0x3d70f4a5	0.05882706
99	0xbc982ed6	-0.01857702
100	0x3b410178	0.0029450338
101	0xbc21a03e	-0.009864865
102	0x3e26e965	0.1629997
103	0x3dd557cb	0.10417136
104	0x3ce091f6	0.02741335
105	0xbe066ce6	-0.13127479
106	0x3d83ef49	0.064421244
107	0x3ec697c6	0.3878767
108	0x3ea15693	0.31511363
109	0x3e0d5344	0.13801295
110	0x3e215a71	0.15757157
111	0xbe62bf1c	-0.22143215
112	0xbd488daf	-0.048963245
113	0xbe08d0c7	-0.13360892
114	0xbdd27536	-0.102762625
115	0xbf123e0e	-0.5712594
116	0x3d82f324	0.06394032
117	0xbe8ad171	-0.27112916
118	0x3cbb2201	0.022843363
119	0xbe25bb89	-0.1618482
120	0x3dde8eb4	0.10867062
121	0xbf3ba5c0	-0.7329979
122	0x3e217c44	0.1577006
123	0xbf564676	-0.83701265
124	0xbf3f7649	-0.74789864
125	0xbd3d628a	-0.046236552
126	0x3d9339d5	0.07188765
127	0x3e46c47a	0.19410887
128	0xbe85c6ab	-0.26128134
129	0x3d7a08d6	0.061043583
130	0xbdc49906	-0.095994994
131	0x3cacc207	0.021088613
132	0xbef3a97d	-0.47590247
133	0x3c93ce32	0.018042658
134	0xbe1165b2	-0.1419895
135	0x3d426d5c	0.047467574
136	0x3d25240a	0.040317573
137	0xbf13e3ee	-0.5776967
138	0xbdc14c32	-0.09438361
139	0xbf04026b	-0.5156619
140	0xbd38ca4a	-0.045114793
141	0x3d8c74b6	0.06858198
142	0xbef60367	-0.4804947
143	0x3c5b7572	0.0133947
144	0x3e340f33	0.17583923
145	0x3e32852f	0.17433618
146	0x3d6e9c82	0.058254726
147	0xbd93a2e7	-0.072088055
148	0xbea0aea7	-0.3138325
149	0x3d85abe4	0.06526926
150	0xbf28f27d	-0.6599501
151	0x3e5c99db	0.21543066
152	0xbdc6608b	-0.09686383
153	0xbe03b469	-0.1286179
154	0x3c71de3f	0.01476246
155	0xbe910520	-0.28324223
156	0xbf254863	-0.6456358
157	0x3d00c577	0.031438317
158	0xbe178515	-0.1479686
159	0x3e6af0b5	0.22943385
160	0x3e7548b5	0.23953517
161	0xbed4f782	-0.41595083
162	0xbc7152e6	-0.014729237
163	0x3bf359b9	0.0074264673
164	0xbde783c7	-0.113044314
165	0xbdd69b21	-0.10478807
166	0xbecd8b91	-0.40145543
167	0x3c6a8d30	0.014315888
168	0xbcf4b856	-0.029873054
169	0x3d73ca58	0.059519142
170	0xbe3f58f5	-0.18686278
171	0xbed84afd	-0.42244712
172	0x3e10518c	0.14093608
173	0x3ed0d8eb	0.40790495
174	0xbecc2a87	-0.39876196
175	0x3eaf1f02	0.34203345
176	0x3e311f91	0.17297198
177	0xbf5c2e37	-0.8600802
178	0xbe675817	-0.22592197
179	0x3e3aba22	0.18235067
180	0x3dcd588c	0.100266546
181	0x3e43000c	0.19042987
182	0x3c8d29b7	0.017231805
183	0x3dbe89c6	0.09303622
184	0x3d9dd687	0.077069335
185	0x3ebc9f90	0.36840487
186	0x3e862242	0.26198012
187	0x3e04ba71	0.12961747
188	0xbefc5292	-0.49281746
189	0x3e024b70	0.1272409
190	0xbe7e982c	-0.24862736
191	0x3e300c42	0.17192176
192	0x3d83db3b	0.06438299
193	0xbe5e0f0f	-0.21685432
194	0xbe80efd1	-0.25182965
195	0x3e96e618	0.29472423
196	0xbe96dc85	-0.29465118
197	0xbd985ff6	-0.07440178
198	0x3bc7d502	0.0060983906
199	0x3de84571	0.1134137
200	0x3d0beb7a	0.034160115
201	0xbe10553e	-0.14095017
202	0xbe4cefd5	-0.20013364
203	0x3e096d6e	0.1342065
204	0xbe252e3e	-0.16130921
205	0xbe8c0a32	-0.27351528
206	0x3e1dfad7	0.15427719
207	0x3dcd6f6b	0.10031017
208	0xbdb85cde	-0.09002088
209	0x3db4fdac	0.088374466
210	0x3e3c0a08	0.18363202
211	0x3dfef3cb	0.124488436
212	0xbe28ba97	-0.16477428
213	0x3e6cf9c9	0.2314216
214	0xbe8e5cf3	-0.2780529
215	0xbe92b929	-0.2865689
216	0xbe366efd	-0.17815776
217	0xbd84104e	-0.06448422
218	0xbd89979d	-0.06718371
219	0xbea87909	-0.32904842
220	0x3e004fc7	0.12530433
221	0xbdb596a0	-0.0886662
222	0x3cafe035	0.021469215
223	0x3dc0b54d	0.094095804
224	0xbf4ef64d	-0.80844575
225	0x3d71ebb3	0.05906267
226	0xbe3a20ea	-0.18176618
227	0xbead2711	-0.33818868
228	0xbf4a4568	-0.79012156
229	0x3e9c0d4c	0.30478895
230	0x3c9372ab	0.017999014
231	0x3af64777	0.0018789609
232	0x3cdc3a56	0.026883285
233	0x3e62e70f	0.22158454
234	0xbe925a6a	-0.28584605
235	0xbf26af1a	-0.65110934
236	0x3de2ac9c	0.11068079
237	0x3d552805	0.05204012
238	0x3e71619d	0.23572393
239	0xbeaf21d1	-0.34205487
240	0xbe9aff27	-0.3027279
241	0x3daab710	0.08335698
242	0xbd19f3bc	-0.03758596
243	0x3dec98c9	0.11552579
244	0x3d02bcf9	0.0319185
245	0x3e081244	0.13288218
246	0xbe9320dc	-0.28736007
247	0xbe1b30db	-0.15155356
248	0x3e320139	0.17383279
249	0x3e8504ff	0.25980374
250	0x3e6d1ce8	0.23155558
251	0x3d17effb	0.037094098
252	0xbe9f1fdf	-0.31079003
253	0xbddf3d35	-0.10900346
254	0x3e51b158	0.20477808
255	0xbe94f5da	-0.2909382

fc3.bias f4 [4]
0	0x3c500b95	0.012698074
1	0xbcaac9c8	-0.02084817
2	0x3dac5f49	0.08416612
3	0x3d3c851c	0.04602538
