checkpoint_critic.pth (torch_old, 631788 bytes, 5 tensors)

fcs1.weight f4 [512, 48]
00000000: bd76 52bf 6365 6a3f 8c16 b5be 8e40 19be
00000010: 0baf ccbe 58a2 8abf 006e cabe 2c1b 32be
00000020: afa7 3ebf 3987 913f 486a dcbd aa20 973e
00000030: 93e0 a4be 879a 1d3f 1cf7 78bd eef7 8c3e
00000040: e965 05bf deae a43f 18ea 393f 7f6b fb3f
00000050: da9d babf d745 4d3f aa17 423f 3901 0040
00000060: 07b2 9d3e 61a3 883e 576e 91be ddf7 363f
00000070: 2991 e53e 9212 91bf a3ec 7fbe 8ded 363f
00000080: a8c3 203f b337 a13e 0d83 cdbe 9da0 82bf
00000090: 1d22 953e a999 193f 4303 d2be e887 77bf
000000a0: dd03 8d3f 5f6c 023f 0bc5 84be 2dc2 033f
000000b0: 6237 b63f 3db1 483f 0007 66be d197 0a3f
000000c0: 679f 0bbf 6691 503f 1715 80bd b638 863f
000000d0: b657 1fbf d538 b9be da63 20bc fbe3 813f
000000e0: 7c4a 07bf 4516 563f 761d aa3e 658e b23f
000000f0: e596 3fbe 4c7c a1bf d4f2 873e dd34 ac3f
00000100: 158a 6cbe 410d a83f 78bb 0a3f 8412 9ebf
00000110: c2f0 0f40 92da 2940 99fc f23e 4648 9bbf
00000120: ae45 71bf bef6 10bf 3311 763e 6cfb 9c3f
00000130: a228 173f 8f30 c8be 9787 863e d57c a43f
00000140: 9fae 6bbf a9db ffbe 9f08 18bf 06ab 9f3e
00000150: 275e 263e ee57 9bbf d556 19bf ee89 ae3e
00000160: 13bd 17be 82fd 0e3d 8557 6abe 1529 9b3f
00000170: 466f 0ec0 707a 2b40 a7e4 4bbe 3f71 9b3f
00000180: 7784 a43e 498c f23d 049d e4bf c4fc 4440
00000190: c2e0 4a3f 0ff8 073f 4090 e3bf d20b 4540
000001a0: a42c 943d e8c7 903e 24db e2bf d40c a33e
000001b0: a35b 33bf 3af9 ad3f a887 e6bf 7571 823e
000001c0: bc1c a73e 2e05 1e3f 7ea2 2bbd 3274 87bf
000001d0: 0496 0fc0 1138 ffbc f295 f53c 590a 8ebf
000001e0: ff29 8c3f 6cbb e73f 9e45 9d3e 2973 e43e
000001f0: 34b6 3bbf b6ab fb3e 380e 943e e9fe de3e
00000200: 5d26 813f 24e8 ee3f 6a8e 623f 6726 ac3c
00000210: 6f0f 353f 7e44 a63f 5ee0 5b3f 6e09 1b3d
00000220: d30d cb3f a591 0d40 d5d3 87be f078 9e3d
00000230: b068 0f40 7d73 55bc 53a8 95be 9237 743d
00000240: bf5e 873e b60c 853f e295 1f3f 2b4f 4f40
00000250: 1915 3cbf e4a0 e4be a87d 153f ad61 4b40
00000260: 3455 2f3e e2fc 8b3f 019e 76bd 4a3f db3f
00000270: 280a 833e 2956 723f 4243 73bd 3449 e13f
00000280: feb5 b3be c5f2 ab3e 84fe febd f706 d03c
00000290: e00b e03f 7436 1640 830b 0bbe 390b a0ba
000002a0: 9336 083f bd3b a53f 4f01 053f e543 66c0
000002b0: 8167 383f 1863 dabe 5122 083f eda2 64c0
000002c0: 145e 383f 430a b23f 9dd4 0ebf 3cde a3bf
000002d0: b27f 6fbe 91ee 703f cfcf 18bf 5e93 a3bf
000002e0: 2d0d 933d e72e ec3e 4b4a 41bb bedd e5be
000002f0: 3a8c e1bf 3027 1540 d924 47bb b0fd e9be
00000300: 3694 8abf 2fef 063f 3551 74bf 9f94 9fbe
00000310: 5800 a7bf 8497 22bf 5f95 6abf ff9f a1be
00000320: 84e2 afbf df11 df3e e911 063f f55f 51bf
00000330: aeb8 23bf 1d8d 7fbf 8ba3 063f c34a 3fbf
00000340: 6101 b9bf 2562 d03e c349 bdbf 1f68 d4bf
00000350: b61f 753f baa2 b2c0 8fb1 b6bf cb77 ccbf
00000360: ccce 8ebf 0869 bb3f a83a cfbd 7e42 cd3f
00000370: 3a1f a73f c8c1 28bf 3426 edbd fa3d c73f
00000380: ddc0 a5bf 0a13 a43f a188 02bf bce2 273f
00000390: 4642 2a3f 6a8e 79bf 8b58 f1be f037 2a3f
000003a0: fde6 96bf b9f2 9a3f 6514 ddbd 7544 0ac0
000003b0: aae2 7cbf daf1 b3c0 e703 e5bd 590f 09c0
000003c0: 2420 c23e ae04 95bd 2285 7abd 1cb6 4140
000003d0: 277f b23f 08da a2bf afc1 97bd 9cdc 4140
000003e0: d5da c5bd d5ca fabe cd81 dfbe b144 30bf
000003f0: 50e2 d43e d9e8 b0be 7b2e d7be 5d9a 40bf
-0.8221243 0.91560954 -0.35368764 -0.14966032 -0.39977297 -1.0830793 -0.39537048 -0.17393178
-0.74474615 1.1369392 -0.10762459 0.29517108 -0.32202587 0.61563915 -0.060782537 0.27532905
-0.5210863 1.2865865 0.72622824 1.964218 -1.4579422 0.8018469 0.7581736 2.0000746
0.30799887 0.26687148 -0.28404495 0.7147196 0.4483731 -1.1333792 -0.24992613 0.71456224
0.6279855 0.31487808 -0.40139046 -1.0205265 0.2912759 0.6000009 -0.41018113 -0.9669175
1.1016804 0.5094661 -0.25931582 0.51468164 1.4235651 0.78395444 -0.22463608 0.54137903
-0.54540104 0.8147186 -0.062540226 1.0486057 -0.6224321 -0.36176172 -0.0097894315 1.0147699
-0.5284803 0.8362773 0.33225602 1.3949705 -0.18709905 -1.2616057 0.2655245 1.3453633
-0.23099549 1.3129045 0.54192305 -1.23494 2.2490697 2.6539655 0.47458342 -1.2131431
-0.9424695 -0.566265 0.24029998 1.2264228 0.59046376 -0.39099547 0.26275322 1.2850596
-0.92063326 -0.49972275 -0.59388155 0.31185168 0.16246854 -1.2136209 -0.5989812 0.34089607
-0.1481822 0.034909733 -0.22884949 1.2121912 -2.2255416 2.679348 -0.19911443 1.2143935
0.32132313 0.118431635 -1.7860417 3.0779276 0.79249203 0.5311288 -1.7778397 3.0788465
0.07235077 0.28277516 -1.7723126 0.31845725 -0.700617 1.3591683 -1.8010149 0.25477186
0.3263911 0.61726654 -0.04190301 -1.0582335 -2.2435312 -0.031154664 0.029978726 -1.1096908
1.0950316 1.8104072 0.30717176 0.4461911 -0.73324895 0.49154443 0.28917098 0.43553856
1.0089833 1.8664594 0.88498557 0.021014405 0.70726675 1.2989652 0.8588923 0.03785079
1.5863594 2.2120144 -0.26528803 0.07737911 2.2407646 -0.013028023 -0.29229984 0.05962331
0.26439473 1.0394504 0.6233808 3.239207 -0.7346969 -0.44654 0.5839486 3.1778367
0.17122346 1.0936549 -0.060209278 1.7128689 0.25593686 0.9466272 -0.059390314 1.7600465
-0.35099787 0.33583656 -0.12450889 0.025393946 1.7503624 2.3470736 -0.1357861 -0.0012210376
0.53208274 1.2908856 0.5195512 -3.597894 0.72032934 -0.42653728 0.5317736 -3.5724442
0.7201855 1.3909382 -0.5579317 -1.2802196 -0.23388556 0.94114023 -0.5969209 -1.2779348
0.071802475 0.46129534 -0.0029493745 -0.44895738 -1.7620919 2.3305168 -0.0030386953 -0.4570136
-1.082648 0.52708715 -0.9543641 -0.31168076 -1.304698 -0.63512444 -0.9163417 -0.3156738
-1.3741002 0.43568322 0.5237108 -0.81787044 -0.63953674 -0.99824697 0.52593297 -0.7472345
-1.4453546 0.40699878 -1.4788135 -1.6594275 0.9575151 -5.582364 -1.4272937 -1.5974058
-1.1156859 1.4641428 -0.1011861 1.6035917 1.3056405 -0.65920687 -0.11579552 1.5565789
-1.2949482 1.281831 -0.5098973 0.65580344 0.66507375 -0.9748293 -0.47137865 0.66491604
-1.1789242 1.2105323 -0.107949056 -2.1604283 -0.9878336 -5.623273 -0.11182385 -2.1415617
0.37915146 -0.07276283 -0.06116212 3.02674 1.3945054 -1.2722788 -0.07409989 3.02909
-0.096608795 -0.48982874 -0.43653718 -0.68854815 0.41578913 -0.3455265 -0.4202765 -0.7523554

fcs1.bias f4 [512]
00000000: bce1 10c0 d386 6bbf 10b9 b2be 4784 12bf
00000010: f88b c3bf 38a9 2740 323b 203f a6a9 fd3f
00000020: 248b f33f 2332 973f f1bc 1840 3998 553f
00000030: d220 473f ddb9 3c40 9cf1 05c0 7261 2c40
00000040: d5c2 be3f 306d 8c3e d170 b93e da81 793e
00000050: 818d 843f c64c b5bf 393e 3440 c56d 493f
00000060: 1b76 b8bf 7dfd d8bf 4c4d 0fc0 618d 813f
00000070: d032 543f a4bd 85bf 317a 6340 e12c 8bbe
00000080: 8020 ae3f 6cd5 c03f 7569 443f 7d21 99bf
00000090: 9c19 5b40 c4f6 27bf 01ac cebe e157 ac3f
000000a0: 972b 4940 0fa4 d93f d99b 4440 a048 193f
000000b0: eb38 5940 82e4 c23f c6c4 8fbf 25f5 2740
000000c0: d72b 96be c7dd 533e 5ccd 0bbf 5aa5 93bf
000000d0: 3c12 63be 818c 6f40 4eec 68be a72d e23f
000000e0: c162 e83f 9999 973e 1961 0340 6961 883f
000000f0: 7f52 b73f d57b 0abf 7348 87bf 1a69 16bf
00000100: 8eec cbbf 436b b83e c2b8 7d3f 74f1 1dbe
00000110: 2e43 0440 5e4c 573f 8d8b aebf 0f07 163f
00000120: 5322 2bbf 2dc6 893f 7eb5 a53f ad45 2740
00000130: 6e56 8cbe 8ba7 b83f 2d72 a6bf 345f a03d
00000140: bb9e 3240 80e9 33bf 37ac 853e 15fe b3bf
00000150: 61f8 8fbf 12af a2bf e6d7 c1bf deba ccbf
00000160: 9cd0 e13e 7494 b73f 38ce c8bf 97d2 4540
00000170: 10c2 69bf 9452 823f 4c9f 6e3d db90 a4bf
00000180: 6d1e 81bf f5c8 3e40 1c5d 52bf 895a 10bf
00000190: 574e 49bf c207 9340 5569 c2bf 6a44 2840
000001a0: e85b 2640 1859 25c0 c022 6c3f 9802 a2bf
000001b0: 9496 c33f d923 10c0 eb70 ef3f 60ea d1bf
000001c0: 3b13 54bf 8c32 8c3f cfb4 06c0 2f88 3b40
000001d0: 16cf b13f 12c7 6ac0 a321 8fbf 6439 e53e
000001e0: 8595 ab3f a0c0 c73f 035c aebe 342d dabe
000001f0: d1ef e33e 5aa9 98bf 199b d63f 80ca 06c0
00000200: 0d66 48be dcc4 dc3f d064 e4bf c976 ca3f
00000210: 1d03 423f 7854 0140 1169 d73f 85ce f2be
00000220: f794 133f 292b a4bf ff10 d6bf 9d5b 9ebe
00000230: 32b5 613f 90cf 853e e866 9c3f cea5 4dbe
00000240: 6b6e 33c0 82e9 1140 2e17 413f 3408 2440
00000250: 6752 9b3f 09cf d63f 44f0 03bf b74f 7140
00000260: 6060 0bbf a53b 5f3f 8ec3 f23f 0037 2abe
00000270: 131e ddbf c8ac 2a40 fa42 03bd b04d b8bf
00000280: 35a9 c23f e7bb 16bf fe56 3940 ec97 0340
00000290: 3f77 23c0 5009 5d3f 53c2 0bc0 f730 273f
000002a0: 3fc0 15be abf9 b03f fbda 5540 e739 983f
000002b0: e4f1 d23f d810 d0bf 8727 e9bf b65d 44bf
000002c0: 0ad3 db3f d044 e13f e688 0640 75a4 c43f
000002d0: 2103 483f 9c9f 6b40 1fc2 04bf 3e99 dc3f
000002e0: 8840 983e 4e17 2740 4396 0f40 4223 3dbf
000002f0: 9537 f5bf 83dc d83f 9461 33c0 20ed 063e
00000300: 2ac3 b73f aa53 c63f 7a94 1ec0 28e1 473f
00000310: bd91 ed3f fb41 2b40 f44d a03f 8663 35c0
00000320: d495 d03f 9e80 1240 7dc7 edbe de9f bfbe
00000330: b56b 803f c1be 19bf fca2 edbf ddf1 9b3f
00000340: a549 473f 989b f13e c78f 6640 1dfa 0e40
00000350: 1069 0ec0 5836 9bbd 9ab4 573f 0b63 26c0
00000360: 4624 643f 9785 703f e9cf 00c0 f8a8 bcbe
00000370: 790d 693e 83bc 18bf f1a4 953d ef3c 84bf
00000380: 0c5b 923e 3c3d 1c40 ff19 443f 9a84 07c0
00000390: c1b1 5d3e 9d9c b2be e707 dfbe 03ec f03f
000003a0: 1d1c b7bf e316 1040 d856 aa3f 9fc9 90bf
000003b0: 2f14 433e 05c6 babf 8170 c43f 9313 d63f
000003c0: f17d c83e 5af2 1abf 417d b4bf bd19 983f
000003d0: 27ec 3d40 1feb 8cbf eb78 fcbf be63 f6bd
000003e0: 2c20 ebbf 3cff 5c3f 4c07 06c0 155d cabf
000003f0: 871a 6a3f f66b 0b40 d56e bc3f 5dc3 debe
-2.2637777 -0.920026 -0.34906816 -0.5723309 -1.527709 2.6197033 0.62590325 1.9817398
1.9026837 1.1812176 2.386532 0.834354 0.77784455 2.9488442 -2.0928717 2.6934476
1.4903208 0.27427053 0.36218885 0.2436594 1.0355684 -1.4164054 2.8162978 0.7868312
-1.4411043 -1.6952358 -2.2390928 1.012127 0.82890034 -1.0448499 3.554333 -0.27182677
1.3603668 1.5065131 0.76723415 -1.1963345 3.423438 -0.6561091 -0.40365604 1.3464319
3.1432855 1.7003192 3.0720122 0.5987644 3.394099 1.5225985 -1.1231925 2.6243374
-0.29330322 0.2069007 -0.5461023 -1.1534836 -0.22174925 3.7429507 -0.22746393 1.7670182
1.8155137 0.29609373 2.0528014 1.0654727 1.4322051 -0.540952 -1.0568985 -0.5875412
-1.5931566 0.36019334 0.99110043 -0.15424138 2.0666003 0.841009 -1.3636338 0.5860452
-0.6684925 1.0763603 1.2946012 2.6136277 -0.2740969 1.442613 -1.3003594 0.078306586
2.7909381 -0.7027817 0.26107952 -1.4061915 -1.1247674 -1.2709677 -1.5144012 -1.5994527
0.4410447 1.4342179 -1.5687933 3.0909784 -0.9131174 1.0181451 0.058257386 -1.2856706
-1.008741 2.9810154 -0.82173324 -0.56388146 -0.7863516 4.594697 -1.5188395 2.6291757
2.5993595 -2.5835629 0.92240524 -1.2657042 1.5280328 -2.252188 1.8706335 -1.639965
-0.82841843 1.0952926 -2.1047857 2.930187 1.3891323 -3.6684003 -1.118214 0.44770348
1.3405005 1.560566 -0.34054574 -0.42612612 0.44518903 -1.1926682 1.6766082 -2.1061096
-0.1957018 1.7247577 -1.7843266 1.58175 0.75786 2.0207806 1.6828939 -0.47423187
0.5764918 -1.2825671 -1.6723937 -0.3092927 0.8816711 0.2613492 1.2218904 -0.2008278
-2.8036144 2.2798772 0.75425994 2.5630007 1.2134522 1.6781932 -0.5153849 3.7704904
-0.5444393 0.87200385 1.8965929 -0.16622543 -1.7274803 2.6667957 -0.032046296 -1.4398708
1.5207888 -0.58880466 2.8959346 2.0561476 -2.5541532 0.86342335 -2.1837356 0.6530909
-0.14624117 1.3826193 3.3414905 1.189267 1.6480069 -1.625514 -1.8215188 -0.7670549
1.7173779 1.7599125 2.1021056 1.5362688 0.78129774 3.6816168 -0.51858705 1.7234266
0.29736733 2.6107974 2.2435462 -0.73881924 -1.9157587 1.6942295 -2.8028307 0.13176394
1.4356434 1.5494282 -2.4778123 0.78077936 1.8560101 2.6759021 1.252379 -2.8341994
1.6295724 2.2891002 -0.4644126 -0.37426656 1.003287 -0.6005669 -1.8565364 1.2183186
0.7784675 0.4718902 3.6025255 2.2340157 -2.2251625 -0.075787246 0.8425995 -2.599795
0.8911785 0.9395384 -2.0126898 -0.36847663 0.22759046 -0.59662646 0.07306851 -1.0331095
0.28585088 2.4412374 0.76602167 -2.1174684 0.21649839 -0.3488511 -0.43560717 1.8822025
-1.4305454 2.251397 1.3307753 -1.131153 0.19050668 -1.4591681 1.5346833 1.6724724
0.39158586 -0.6052605 -1.4100724 1.1882855 2.9675386 -1.1009253 -1.9724401 -0.12030743
-1.8369193 0.86326957 -2.0941954 -1.5809656 0.9144673 2.1784644 1.4721323 -0.43508425

fc2.weight f4 [256, 516]
00000000: d338 aabc a2dd 1c3d 19dd 84bd d939 74bc
00000010: 94eb 2d3d af0d fb3c 33bd 1c3c 6a05 51bd
00000020: acf1 303d 8540 b0bb 15f6 2abd 4f7d 5dbd
00000030: 857e 143d d6ad 00bd b21a aeba 65d7 b23c
00000040: 8d0b 28bd 3a24 b2bc 3d23 83bc 8f9c 0e3d
00000050: 8d9a 1ebd 0b6e 77bd 8d93 45bc a62c 3d3c
00000060: 30a7 c1bc e75b 9cbc 24a6 153c 670f 383d
00000070: 2fcd 223c 9a19 63bc 673b bebc 28a1 32bd
00000080: b5b6 063d 8cb5 cdbc a043 41bd e1c1 29bd
00000090: b88a 69bd a60b 3abd 1659 fbba 76ed 1c3c
000000a0: f553 05bd c8b6 48bc c0e7 0f3d fc11 093a
000000b0: 362d 0ebd ca00 e33c c371 813c 9c5b 283d
000000c0: f032 41bb 4e67 76bd bef8 053d 9d45 66bd
000000d0: bd6f 54bd d9fe 2e3c 7e82 1d3d 828f 94bd
000000e0: 0fd5 15bd b801 143d dc2f f13c 7ea3 3abd
000000f0: 623c 8bbd a5ef 043d 1684 183d 60e2 5c3d
00000100: 9bc7 68bd 982b e4bc e558 1ebd 3178 02bd
00000110: 5aaa 65bc a653 523d e550 3dbd ad70 263d
00000120: a90e 5f3d 762c 46bd a2c9 693c 1c48 003d
00000130: ff79 d23c e2ee 90ba d43f 8d3c 24bd 8fbd
00000140: 8d6d 2bbd 0576 a3bc 5bac 9c3c ca0e 443d
00000150: 3382 a1bc 6eef f43c f5bd 0bbd fb2f 5dbd
00000160: fb5d 973c 27b1 e5bc 2d49 0b3d 0ed2 263d
00000170: 8c88 123d 403b 34bd 6bd0 15bd a284 b93c
00000180: f663 87bd fbb4 983c dee1 95bd 7a6e 463c
00000190: 67ba 373d b152 f53c 9c50 4a3d 9959 b7bb
000001a0: 4a86 033d a380 413d 088a 0bbd 8398 3fbd
000001b0: 4930 c2bc 6fa8 6b3d e5e5 babd 9393 57bb
000001c0: 24de 403d 31fc 5bbd ea8d 263c 3148 e13c
000001d0: bbd4 f63c 5d9c 56bd cf0b 44bd 1aa4 343d
000001e0: 34c9 b2bb d45a b73c d0e2 823c afc6 123d
000001f0: 908c 61bd 339a 503c 6cfb ea3c f8b6 39bd
00000200: e28d b53c a8d7 81bc 3375 503d ae51 c3bb
00000210: e0ff 6abb d3ed 003c 71ef 093d f58a e4bb
00000220: 57a4 83bd 9983 87bd 95cb 2abd 33b5 28bc
00000230: ce2a 0c3d 0d5e 373d 6b33 123d 0fa3 393c
00000240: 0fc0 093d 70fb efbc 2b9c cfbb c0cc fd3c
00000250: 5992 0abd 3c83 89bd c308 833c f7e9 dc3b
00000260: c4c3 1c3d 1388 5ebd 1455 64bd 67c4 2fbd
00000270: 1ca3 a6bd c085 88bd d6d3 afbc 7ba6 c1bc
00000280: 08dd 253b 9f1e 743d 7e26 30bd 38e0 143c
00000290: 9c88 0cbd b91f d5bc 18e9 853c 8ebe bd3c
000002a0: c56b 03bd 4bb9 47bd 8b8d f8bc 7749 afbd
000002b0: d9c0 8bbc 9f57 c6bc db21 7fbc 1fed b2bb
000002c0: ab2c 82bc e75f 6e3b e5ae fabc 3df9 443b
000002d0: b2ef a4bc 41f6 6fbd 850c 093d ee13 0a3d
000002e0: 746c 8ebc 1df6 043c 6554 463c 5b02 35bd
000002f0: 29c3 e33c 19c3 1abc 5da4 3dbd af79 7cbd
00000300: 03d5 6bbd 4824 98bd a7d5 39bd 304f 1bbd
00000310: 3dce 3cbd 9714 a73b 11e5 193d cca0 703d
00000320: 6ee0 64bd bdf0 323d 7791 2e3d c2d9 c93c
00000330: b4b8 8c3d 46f6 58bd 28f2 09bd b1f6 713d
00000340: 58fe 473d f1b0 dcbc 6237 68bd 5a82 51bd
00000350: 93cd 16bc 229d 09bd 6ae2 05bd b623 463c
00000360: 6dc8 923c 5dfb 38bd df88 54bc 421a febc
00000370: 824e 6e3d cdfa 65bd 3534 f33c 4255 83bd
00000380: e3ac 78bd 2c2b 5e3d 3ff5 4ebb 34bc 64bc
00000390: d718 533d d18f 8a3c d431 db3c 4958 ccbc
000003a0: 9991 68bc 48c3 75bd 20bb 9abc 3ab6 223c
000003b0: 28e2 20bd 4651 6ebd 3f12 253d 9987 7abd
000003c0: e454 82bd 0404 febc eaa4 1a3d d27a 7dbd
000003d0: b267 47bd 1b0f 46bd 8b15 4abd 569d 3c3c
000003e0: 6c5d cd3c d236 45bd dbb1 f03b 139f 32bd
000003f0: e15c aebd c82e 62bc b972 683b 94a5 72bc
-0.020779049 0.038297303 -0.064874835 -0.01490637 0.042460993 0.030646173 0.009566593 -0.051030554
0.043199226 -0.005378785 -0.04173859 -0.05407458 0.03625347 -0.031415783 -0.0013283102 0.021831224
-0.04102664 -0.02174579 -0.016008014 0.034817275 -0.03872161 -0.06040768 -0.012059105 0.01154629
-0.023639292 -0.019086791 0.009133849 0.044936564 0.009936615 -0.013861084 -0.023221685 -0.04361072
0.032889087 -0.025110982 -0.047183633 -0.041444663 -0.057017058 -0.045421265 -0.001917633 0.0095780995
-0.03255077 -0.01225061 0.035133123 0.0005228815 -0.034711085 0.027710337 0.015801316 0.04110299
-0.0029479824 -0.060157113 0.032707922 -0.056218732 -0.051864374 0.010680878 0.038454525 -0.072539344
-0.03658014 0.03613445 0.029441766 -0.045566075 -0.067986265 0.032455105 0.037235342 0.053926826
-0.056830984 -0.027852818 -0.038658995 -0.031852905 -0.014017666 0.051349305 -0.046219725 0.0406348
0.05445734 -0.048382245 0.014269264 0.03131877 0.025692938 -0.0011057521 0.01724235 -0.070184976
-0.041852523 -0.019953737 0.019125154 0.047865666 -0.019715404 0.029899325 -0.034116704 -0.054000836
0.01847743 -0.028038574 0.034005333 0.040727668 0.035774752 -0.044001818 -0.036575716 0.022646252
-0.06610863 0.018640986 -0.07318471 0.012111301 0.0448555 0.029946657 0.04939328 -0.0055953977
0.03211049 0.04724182 -0.034067184 -0.046776306 -0.023704665 0.057533678 -0.0912588 -0.0032894358
0.04708685 -0.053707305 0.010165671 0.027500244 0.030130735 -0.052395213 -0.047862824 0.044101812
-0.005456114 0.022382177 0.015977293 0.03583401 -0.05506569 0.012732076 0.02868434 -0.04534051
0.022162382 -0.015849903 0.05089302 -0.0059606647 -0.003585808 0.007869202 0.033675615 -0.006974573
-0.0642783 -0.06616897 -0.041698057 -0.0102971075 0.03422051 0.04476743 0.035693567 0.01133038
0.033630427 -0.0292947 -0.0063357553 0.030981421 -0.033830974 -0.06714484 0.015995389 0.006741758
0.038272634 -0.05432899 -0.0557452 -0.042911913 -0.081365794 -0.06666136 -0.021463316 -0.023638954
0.0025308747 0.059599515 -0.04300546 0.009086661 -0.03430997 -0.026016103 0.0163465 0.023162153
-0.0320852 -0.048760694 -0.03034093 -0.08558934 -0.01705973 -0.024211703 -0.015572037 -0.005460396
-0.01589044 0.003637308 -0.030600974 0.0030055784 -0.020133827 -0.058584455 0.033459205 0.033710413
-0.017385699 0.008115319 0.012105082 -0.0441917 0.02780302 -0.009445929 -0.046299327 -0.061639484
-0.05757619 -0.07428795 -0.04536977 -0.037917316 -0.04609512 0.00509889 0.03757197 0.058747098
-0.055878095 0.043686617 0.042619195 0.024639968 0.06871167 -0.05296924 -0.033678204 0.059073154
0.048826545 -0.026939841 -0.056693442 -0.051149704 -0.009204286 -0.03359712 -0.03268663 0.012093475
0.017917836 -0.045161594 -0.012972086 -0.03101838 0.05818034 -0.056147385 0.02968798 -0.06412746
-0.060711753 0.05424039 -0.0031579284 -0.013960887 0.05153736 0.01691428 0.026757158 -0.024944441
-0.014194869 -0.060000688 -0.018888056 0.0099311415 -0.03927818 -0.058182977 0.040300604 -0.061164472
-0.06363848 -0.031007774 0.03775493 -0.06188471 -0.048682876 -0.04835425 -0.04933695 0.011512121
0.025068961 -0.048147984 0.007345421 -0.043608736 -0.08513809 -0.013805099 0.003546877 -0.014809985

fc2.bias f4 [256]
00000000: 231c 34bd 8248 19c0 4c48 23bd bdae 953c
00000010: fdae a53c 232c d1bf 8046 313f 00de 57bd
00000020: f817 ae3f 242b 4940 3aa4 86bf e20e c33e
00000030: ac0f 9c3c 892e 81bf 0204 593f d251 59bf
00000040: cd24 c53f 0195 23bf 84ae 68bc eea3 dc3f
00000050: 797b 8bbe b790 7ebe 4a8d f03c b8a5 02c0
00000060: 581e 4d3c 1fd5 7840 d6ea 5cbf 0e35 0cbd
00000070: 6263 2abd b0e8 0ebd 543a 17bd b244 233e
00000080: aca9 0cbd a560 313d 162d 3fbc badd 403d
00000090: 88cb 5f40 b6a5 4740 770d ff3f 6cf7 2bc0
000000a0: 87c9 a3bf 8a99 2dbd 6321 c2bb 0bd2 953e
000000b0: d785 593b b85d 3abd ac9e 37bf 3756 e2bc
000000c0: 4264 4abd 640a 2c3c 3d69 b83f a32c 8ebc
000000d0: a603 26bc dc74 bf3b f184 c7bc bf67 65b9
000000e0: 5053 cfbe e1eb bdbc 549a c0bc e72c 2cbd
000000f0: 3c66 d93c d911 7a40 c096 fe3f cffc 08bd
00000100: 3a3b 13bd fbb9 c1bf 3596 96bf 807c b83f
00000110: 79dc 40bd 2fe3 b5bc 89a5 893c 9aea 18be
00000120: 3ef4 16c0 4680 0640 cb51 9dbc e0b9 8dbc
00000130: 473b 4c3f ce04 0cbd 7f6f 2ebf cfff 1540
00000140: af59 52bd 20bf a8bb be04 59bb b0db d73e
00000150: 4b04 dc3d 54d0 d3bc de08 003c dc6e 0bbf
00000160: 7d3a 32bd b0eb c3be bc85 34c0 d5ec 46bc
00000170: a06c 24bd 79d8 17bd 2e47 39c0 1dae 96bd
00000180: a908 913b a680 633c 1c1d 8e40 0967 01bd
00000190: bda9 2dc0 f46b 39bd 7471 e93e fa8a fb3f
000001a0: b360 6ebf b653 a13e b51b 9fc0 2484 cbbf
000001b0: ceff 31bd 95d1 f3bf 66a4 d7bc a359 12bd
000001c0: c6c5 163d fd22 82bc 5327 efbe d7d5 b33c
000001d0: 6bb9 a93c 6dba 8ebc 4b2a 1fbd ba42 ca3e
000001e0: 328a bfbc fcac 90bb e619 0dbd d23c bd3c
000001f0: cfee b6be dcb0 723e 28d4 113c 5df3 133b
00000200: 019e 0bbd 23ff 5f40 c3be 3bbf 145b 36bd
00000210: c0bd 9fbc 64d9 54bd 8529 563c af40 b7be
00000220: b084 0abd 3efe 4f39 01b2 2dbd 64eb 43bb
00000230: 7cb3 46bd bbd4 0bbc 8fcf 7d40 60e2 af3c
00000240: eb3f 2d3c adec ca3b d60b be3c 5b20 d0bc
00000250: 26a7 71bf 70e6 e13c ec1b ee3c 92cc a53b
00000260: 0a3b e03e 0c72 41bc 9fd5 c2bb 6105 29bc
00000270: b129 84bc e5e1 cb40 090b 4cbc 7929 f23e
00000280: 1439 d3bc fdb5 603c c3d0 05c0 db10 133c
00000290: de10 14be d8e9 a13b f1d5 ccba 64c6 47c0
000002a0: ff9c b6bb 6d57 b5bb 1c37 6a3c 4526 423c
000002b0: f174 1a3d e825 6540 e598 79bc 5adc 153c
000002c0: 955c 8cbf 953c 5ebd 6abf 89bf 72a5 4cbe
000002d0: bab7 773c a08f 07bd 7755 8cbe 18b2 c840
000002e0: 67c0 b2bc 4756 60bf e9f9 0dbf 0bca 19bc
000002f0: db63 7ebb 2812 e63e 2e45 38c0 906a 5540
00000300: a382 843c cdef 5d40 5ee6 81bf 0062 64bf
00000310: 4592 b53f 997e 13c0 0aa2 41bc 1147 8340
00000320: 85dd 99bc a900 89bc 9e58 0a3c dfe5 673c
00000330: 7e30 35c0 a4f9 a940 33f6 a6bf ffb3 83bd
00000340: 3daf 38bc 99f8 78bd c973 76bf 0090 23bd
00000350: b63e 43bd 8243 3740 3aa2 5f40 2cdd 48ba
00000360: 687d 43bd feff a8be c078 383c 367a b03f
00000370: 2170 c2bf fe7c 4abd 943a dfbc b641 80bf
00000380: 2238 8d3d 8a89 4bbe 1a76 40bc 8f0b 003b
00000390: f8e0 41bd 829e c93e 33c7 f93c d8ac 7cbe
000003a0: eea5 0a3f a1d3 11bf 3807 ddbf 1f4a 24c0
000003b0: 8f81 fa3b dde8 673f 0f1e d63c 0d2b 82bf
000003c0: 91a1 48bd bd85 b7be c79a 56bc 229f 3a3e
000003d0: a12c e7bf 1d68 6b40 1e3e 53bc 1926 8cbf
000003e0: 4104 9abb 6612 96bd 30c4 5c3b 2abc 87bf
000003f0: 3a52 09c0 798b 353c 4938 9ebc c47a 1ebc
-0.043972146 -2.3950505 -0.03986387 0.018271798 0.020225042 -1.6341594 0.692482 -0.05270195
1.3601065 3.143258 -1.0518868 0.38097292 0.019050442 -1.0092326 0.8477174 -0.8489047
1.5401856 -0.63899237 -0.014201764 1.7237527 -0.2724264 -0.24859892 0.029364247 -2.0413647
0.012519442 3.8880079 -0.8629583 -0.034230284 -0.041598685 -0.034889877 -0.03692086 0.15944174
-0.0343415 0.043305058 -0.011668464 0.047086455 3.4967976 3.1194892 1.9925984 -2.6869764
-1.2795876 -0.042382754 -0.00592439 0.29261813 0.0033191347 -0.045499533 -0.7172649 -0.027629001
-0.04941202 0.010500524 1.4407116 -0.017355269 -0.010132706 0.005842788 -0.024355384 -0.0002187779
-0.4049325 -0.023183765 -0.02351109 -0.04203501 0.026538007 3.9073393 1.9889755 -0.033444222
-0.035945155 -1.5134882 -1.176459 1.4412994 -0.04708526 -0.022203056 0.016802566 -0.14933243
-2.3586574 2.1015792 -0.019204041 -0.017300546 0.7977795 -0.03418427 -0.6813888 2.3437383
-0.05135506 -0.005149737 -0.0033114399 0.42159796 0.10743006 -0.025856175 0.007814614 -0.54466033
-0.04351281 -0.38265753 -2.8206625 -0.012141426 -0.040142655 -0.03707168 -2.8949695 -0.07357428
0.004426081 0.013885653 4.4410534 -0.031592403 -2.713485 -0.045268968 0.4559437 1.9651787
-0.931163 0.3150918 -4.972132 -1.5899701 -0.043456845 -1.9048334 -0.026323508 -0.035730015
0.036809705 -0.015885824 -0.4670969 0.021952553 0.020718297 -0.01742288 -0.038858693 0.39504033
-0.023381326 -0.0044151526 -0.034448527 0.02310029 -0.35729071 0.23700279 0.00890068 0.0022575476
-0.03408623 3.4999473 -0.73337954 -0.044520453 -0.01949966 -0.051965132 0.013071422 -0.35791537
-0.033817947 0.00019835771 -0.042406086 -0.0029894942 -0.048511013 -0.008534606 3.9657934 0.021470249
0.010574321 0.0061927647 0.023199003 -0.025406053 -0.94395673 0.027575701 0.029066049 0.005059787
0.43795043 -0.011806976 -0.005945876 -0.010316224 -0.016133161 6.371325 -0.012453803 0.47297266
-0.025784053 0.013715264 -2.0908668 0.008976187 -0.1445956 0.0049412064 -0.0015627724 -3.1214838
-0.0055729146 -0.0055341036 0.014295366 0.0118499445 0.03770918 3.5804386 -0.015234207 0.009146774
-1.0965754 -0.054256994 -1.076154 -0.19984987 0.015119487 -0.033095956 -0.27408955 6.27174
-0.02182026 -0.8763165 -0.5545946 -0.00938655 -0.0038816843 0.44935727 -2.8792224 3.334629
0.016175574 3.4677613 -1.0148427 -0.89212036 1.4185263 -2.304602 -0.011818418 4.102425
-0.018782387 -0.016723948 0.00844398 0.014153927 -2.8310847 5.3117237 -1.3043884 -0.06430816
-0.011272249 -0.060783956 -0.96270424 -0.03993225 -0.047667228 2.8634953 3.4942765 -0.00076623517
-0.04772702 -0.33007807 0.011259258 1.3787296 -1.5190469 -0.049435608 -0.027249612 -1.0020053
0.06895472 -0.19876686 -0.011746908 0.001953814 -0.047333688 0.39378744 0.030490493 -0.2467531
0.5415944 -0.56963545 -1.7267828 -2.567024 0.007644839 0.90589696 0.02613738 -1.0169388
-0.048982207 -0.35844222 -0.013098425 0.18224767 -1.8060495 3.6782296 -0.012893228 -1.0949126
-0.004700214 -0.07327728 0.0033686273 -1.0604298 -2.1456437 0.011080616 -0.019313948 -0.009672824

fc3.weight f4 [1, 256]
00000000: 6766 d5bb 9cb4 adc1 8318 823a c6f6 1a3c
00000010: d857 793b 0973 56c1 d319 2d42 d57d 1539
00000020: 79c9 4b41 0eea 9841 a3ac 27c2 5a3c 0542
00000030: 8bdc 2d3b 8493 96c1 ec08 e3c1 90bb 1cc2
00000040: f4b8 13c2 e03a 4fc2 fca4 61bb f200 a141
00000050: 80b3 a8c1 460d 27c1 4a31 8abb b723 c8c1
00000060: a45e 833c 50c9 8641 cfc4 08c2 db77 35be
00000070: 72c0 12ba 4ff5 0e3d cc2f 94bb 7ac9 8dc1
00000080: 83dd 85bb bc95 93c1 f260 893c e877 1fbc
00000090: 7cbf 8b41 d817 9541 a5ff 8741 3eab f4c1
000000a0: 3b59 15c2 29dc 9e3b 3a17 533b 9349 0cc2
000000b0: 61da 233b 92e1 343b 5bb5 82c1 daa9 86b9
000000c0: 8361 113d fe88 d5bc ce40 e541 4a30 cdbb
000000d0: fb5a ff3b 2ddc 9e3b 5f25 693a e14d aebb
000000e0: 3dc5 22c2 6ab1 dc3b 8e93 d6bc 8ab9 2fbd
000000f0: c62b 7e3b bf06 0441 b58d 7941 d9fa f738
00000100: cc11 613b f275 bbc1 68e2 86c1 b5eb 6041
00000110: 4a9b a7b9 22a3 95bb 1050 c03b eadc 0cc2
00000120: 0f71 49c1 da55 4ac2 f4e7 fe39 8d71 283a
00000130: cd90 9541 cc5e 213c 9710 bac1 dd5f ab40
00000140: cca0 4d3c aacc e4bb fe6f 443b d0ef 0bc2
00000150: 721a a9c1 6aec c43b 3c1c 023a 6eb3 ccc1
00000160: 3006 123b f9a0 fcc1 6405 67c1 f5f0 96b9
00000170: 68bf 7f3b 8779 963b 28de f5c1 f991 fbc1
00000180: 91eb 053c ce87 d5ba 24c7 9e41 0749 023c
00000190: ef79 0fc2 a291 1bbb ec4a 9e41 82ef 2641
000001a0: 9e38 b7c1 c3aa dec1 1508 0bc2 941e b2c1
000001b0: f90a 6e39 4a51 a8c1 dbf5 5e3c aa5a 643b
000001c0: c88c 833c 6250 ceba 1294 bdc1 8386 10bc
000001d0: 1914 623a 1a0c 273b 5a81 a73b 9e0f fec1
000001e0: a25b 3dc2 1f66 043c d342 fe3b 5944 c33b
000001f0: eef1 bcc1 03e2 9c41 1f7d 063c 8685 703b
00000200: 7ff8 9abb c848 f040 443b 64c1 86c1 d5bb
00000210: bc79 95ba d2c5 0e3c 4c57 c33a b1a5 c0c1
00000220: a9e1 1abc 7e61 503a b462 85b9 376b 643a
00000230: d4ba 153c 9eee 7a3b 12fe ab40 4a60 8bbc
00000240: 43d4 a03c 1b30 dc3b a2c1 ea3a b6de 29bd
00000250: 1d80 40c1 1707 d9bb 5a44 0a3d 9d64 d73a
00000260: 1384 10c2 8e70 f8bb 04d4 32ba 18e5 0fbc
00000270: 0587 8439 a327 7e40 1020 93bb 1bfe 8e41
00000280: d464 003b b381 a0bc 76bf 3fc2 4d4e 27bc
00000290: 47d9 3ec2 4323 c8bb eeb3 4cbb dd2d 04c1
000002a0: 98e5 003c 6d99 da3b 3bf3 393b b44f c33b
000002b0: 74f5 8a3d b454 9240 3bbd 073c 1e58 803b
000002c0: 5552 04c2 e9eb 0e3c d60f 82c1 ce42 16c2
000002d0: 1f12 97bb 082e a3ba 4c1d 4ec2 54ca 8440
000002e0: 44d1 043c 6e69 18c2 d4a1 f041 49a5 91b9
000002f0: 5306 92bb 901a 2ec2 134c 85c1 5b89 9241
00000300: 88e2 2f3b 56e4 2641 6132 3dc1 aeb5 89c1
00000310: 7209 30c2 af56 2fc2 5aac 3fbc ab8d bc40
00000320: a6bb 22ba eb7b c43b 4485 e03a 6e7b 04bb
00000330: 54d2 2ac2 9736 a440 68cf 9cc1 4029 f238
00000340: 4a2e d73a 4be1 223c 251f 8bc1 ee77 4bbb
00000350: c8e3 9bbb 2058 3d41 ad31 e041 8d20 963c
00000360: 3858 db3b 5b17 05c2 59d2 413c f3bc 6c41
00000370: 8338 3ac2 dbdf 233d 80de fbbb 7a3d 13c2
00000380: 46ca 37c2 01c2 44c1 b1b2 7cbc f4f4 8fba
00000390: d103 9fc1 3179 80c1 32ae d8ba 1e44 bd41
000003a0: 9a7c 8441 1fad 97c1 38db 7dc2 db2a d5c1
000003b0: f418 3ebb 9f18 3441 d09d 20bb 3da4 8ec2
000003c0: cace f2bb b47e 14c1 e843 b43b bf7a ccc1
000003d0: e376 87c1 a4e5 0041 5cc3 cbbc 8814 04c2
000003e0: 55f3 cd3a 45d6 deba effc 013c 662f dfc1
000003f0: b364 fdc1 801f 2abc d174 beb7 01dd 9d3a
-0.0065124515 -21.713188 0.0009925518 0.009458249 0.0038046744 -13.403085 43.27522 0.00014256623
12.736688 19.114285 -41.91859 33.308937 0.002652916 -18.82203 -28.379356 -39.183167
-36.93062 -51.807495 -0.0034430614 20.125462 -21.087646 -10.440741 -0.0042173015 -25.017439
0.01603634 16.848297 -34.192196 -0.17721502 -0.00055981346 0.034901913 -0.0045222994 -17.723377
-0.004085244 -18.448112 0.01676986 -0.009733178 17.468498 18.636642 16.999826 -30.583614
-37.33714 0.0048480225 0.003220989 -35.07185 0.002500199 0.002760027 -16.338552 -0.0002568502
0.035493385 -0.0260663 28.656643 -0.00626186 0.007792828 0.0048480243 0.00088938134 -0.0053193425
-40.692616 0.0067350166 -0.026193406 -0.042901553 0.0038783415 8.251647 15.597096 0.00011824602
0.0034342883 -23.43259 -16.86055 14.057546 -0.00031968422 -0.004566566 0.005868919 -35.215736
-12.590102 -50.58384 0.00048619474 0.0006425612 18.695704 0.0098492615 -23.2581 5.355452
0.012550544 -0.0069824057 0.002997398 -34.98419 -21.137913 0.006009628 0.00049633137 -25.587612
0.002228152 -31.5786 -14.438816 -0.00028789756 0.0039024 0.004592124 -30.733475 -31.446276
0.008173839 -0.0016291083 19.847237 0.007951981 -35.869076 -0.0023737927 19.786583 10.433474
-22.902645 -27.83338 -34.757893 -22.26493 0.00022701536 -21.039692 0.013608421 0.003484408
0.01605834 -0.0015740509 -23.6973 -0.008821133 0.00086242106 0.002548939 0.0051118555 -31.757626
-47.339485 0.008080988 0.007759431 0.0059590754 -23.61813 19.610357 0.008208542 0.003670068
-0.00472933 7.5088844 -14.264469 -0.006523314 -0.0011404078 0.008714156 0.0014903336 -24.080904
-0.009453216 0.0007949098 -0.00025441276 0.0008713486 0.009138782 0.00382892 5.3747644 -0.017013688
0.019632464 0.006719602 0.001791049 -0.04147216 -12.031278 -0.0066231596 0.03375659 0.0016433183
-36.12898 -0.007581777 -0.0006821754 -0.008782648 0.000252776 3.9711692 -0.004489906 17.874075
0.0019591348 -0.019593095 -47.936974 -0.010211539 -47.712185 -0.006107719 -0.0031235176 -8.261197
0.007867239 0.006671122 0.0028373736 0.005960429 0.06785098 4.5728397 0.008284862 0.0039167544
-33.080402 0.008723238 -16.257732 -37.56524 -0.0046103145 -0.0012449631 -51.52861 4.1496983
0.008106533 -38.10296 30.079018 -0.00027779702 -0.0044563203 -43.52594 -16.662146 18.317068
0.0026837904 10.430746 -11.8248 -17.21371 -44.009224 -43.834652 -0.011698807 5.8922935
-0.00062077714 0.0059962175 0.001712956 -0.0020215171 -42.7054 5.131664 -19.601273 0.00011547143
0.0016416993 0.009941409 -17.390207 -0.0031046825 -0.0047573783 11.834015 28.024256 0.018326068
0.006693866 -33.272808 0.011829936 14.79613 -46.555187 0.040008407 -0.007686436 -36.810036
-45.947533 -12.297364 -0.015423463 -0.0010983036 -19.876863 -16.059175 -0.0016531406 23.65826
16.56084 -18.959532 -63.46408 -26.645926 -0.0029006572 11.256011 -0.0024508126 -71.32078
-0.007409905 -9.280933 0.005501259 -25.559935 -16.93305 8.056065 -0.024873428 -33.02005
0.0015712777 -0.0017001113 0.007933839 -27.898144 -31.67417 -0.010383487 -2.2704162e-05 0.0012044014
